trading/checkpoints/best_PriceGRU.pt (torch, 510719 bytes, 27 tensors)

gru.weight_ih_l0 f4 [192, 20]
-0.014647528 0.069921814 0.089826666 0.06442312 -0.0031129539 -0.06230943 -0.026077012 0.04904597
0.106214546 0.06991912 -0.07216909 0.013445175 0.0852036 -0.08965794 0.121375695 0.14501764
-0.056691077 -0.013927207 0.11176763 0.09057071 -0.07652663 -0.06916012 0.0826413 0.04223208
-0.07973165 0.09719399 0.03799331 0.03612739 -0.123798385 -0.00283533 -0.11565107 -0.10461358
-0.054979518 -0.11015168 0.04869529 0.14565268 0.07194758 -0.054599382 -0.05461312 -0.10833058
-0.024858499 0.048241165 -0.09545403 0.008523003 0.0077578207 0.042606782 0.05890452 0.029063052
0.116585046 0.093462005 -0.03942001 0.04215585 -0.0059446204 0.0052780206 -0.07023689 -0.062317196
0.02232262 0.10191287 0.07115267 -0.03043627 0.06911081 -0.0652322 0.015432003 -0.016606627
0.105692096 0.007817853 0.14070578 0.08160543 0.15305817 0.08395152 0.030374395 -0.037163224
-0.025874851 -0.091824986 0.048784226 -0.016126074 -0.09025494 0.05304408 0.10838364 0.07119603
-0.08870276 -0.05819898 -0.00011523722 -0.06608282 0.0629678 -0.07367694 -0.08285057 0.068343505
0.11004293 0.1342494 -0.0728905 -0.01789969 0.08110944 0.13727067 -0.06291579 -0.10030707
0.04942535 0.065571204 0.11626627 -0.083133474 0.0072286413 0.07487919 -0.08204379 0.00963302
0.0011678088 -0.07576441 -0.020828009 0.106689885 0.054151785 -0.0031012425 0.01587278 0.036239523
0.040554788 0.07745085 0.0871779 0.096129835 -0.07800974 -0.06469341 0.031305388 -0.075728774
-0.07938505 -0.12047598 -0.06565545 -0.006606744 -0.0101270005 -0.06994376 -0.0014350548 -0.03686867
-0.039708648 -0.1619664 -0.028271368 -0.0773937 -0.0130990185 -0.06809968 0.027911566 0.06445398
-0.13451697 0.10388948 -0.058216378 -0.07015656 -0.03448028 0.08393025 0.027394231 -0.023329359
-0.008942067 0.018926296 -0.07512664 -0.07156349 0.0469188 0.05744386 -0.017673383 0.015176143
-0.020059342 0.095883936 -0.100171946 -0.120929584 0.07669345 0.053963922 0.050885323 0.051301736
0.014744599 -0.09145437 0.021518895 -0.06626516 -0.014694939 -0.06545392 -0.104626015 0.06548917
-0.019506928 -0.07821463 0.013506336 0.019961264 0.038871046 0.033842262 0.11484556 0.015532645
-0.0094736405 -0.039788794 0.12306021 -0.003178898 0.0008607757 -0.056625582 0.046687983 0.07842874
0.054805916 -0.0645934 0.061927088 -0.07735387 -0.030121293 -0.0942081 -0.069047 0.029803488
0.032063384 0.08412541 -0.02840057 0.08822461 0.029731866 0.031904705 -0.09612655 -0.032885496
0.033362295 0.037667584 0.052827176 0.04992172 0.009962329 0.009993004 0.037989985 -0.07635212
0.036703132 -0.07477154 -0.028218115 0.023251638 0.10262552 -0.018992793 -0.07476475 -0.0982413
-0.040070157 0.11598287 0.008913567 0.10257684 -0.09888247 -0.030145364 0.02122871 -0.034223307
-0.013150493 -0.08994667 0.08965194 -0.07688158 -0.028751288 0.04333503 0.055304684 0.026888475
0.060334243 -0.04575899 0.106860764 -0.06751419 -0.041026723 -0.0853555 -0.089021444 0.0950781
0.05828987 -0.0753967 0.06501813 0.007984232 -0.0650368 0.030006802 -0.07132953 -0.00093046477
0.008115252 -0.054323025 -0.027233835 0.062463265 -0.03989353 -0.017113399 -0.079742335 -0.011455593
00000000: 2ffc 6fbc 2b33 8f3d 0bf7 b73d 45f0 833d
00000010: b302 4cbb 2c38 7fbd 759f d5bc 6de4 483d
00000020: 0387 d93d c131 8f3d 63cd 93bd 2749 5c3c
00000030: 3a7f ae3d 959e b7bd d293 f83d 817f 143e
00000040: e734 68bd f12e 64bc 6de6 e43d 237d b93d
00000050: feb9 9cbd d2a3 8dbd d83f a93d 8cfb 2c3d
00000060: 594a a3bd a50d c73d df9e 1b3d 50fa 133d
00000070: 028a fdbd f2d0 39bb 78da ecbd a53f d6bd
00000080: 3432 61bd 3497 e1bd b674 473d fa25 153e
00000090: 4159 933d 9aa3 5fbd 02b2 5fbd 6cdc ddbd
000000a0: 0da4 cbbc 8798 453d 677d c3bd 11a4 0b3c
000000b0: 5135 fe3b 7384 2e3d de45 713d a315 ee3c
000000c0: 24c4 ee3d 0269 bf3d e076 21bd 9dab 2c3d
000000d0: 17cb c2bb 3ff3 ac3b 5cd8 8fbd 5140 7fbd
000000e0: eddd b63c b2b7 d03d 7eb8 913d 7c55 f9bc
000000f0: f889 8d3d 7698 85bd 83d6 7c3c 9f0a 88bc
00000100: 1975 d83d 7416 003c 2d15 103e bf20 a73d
00000110: 48bb 1c3e c6ee ab3d b9d3 f83c 7738 18bd
00000120: 7ff7 d3bc bd0e bcbd f8d1 473d d41a 84bc
00000130: 95d7 b8bd c044 593d 3ef8 dd3d 39cf 913d
00000140: cba9 b5bd 0e62 6ebd 83ab f1b8 6e56 87bd
00000150: 43f5 803d efe3 96bd 8fad a9bd aef7 8b3d
00000160: 305e e13d ad78 093e 9d47 95bd 5fa2 92bc
00000170: b51c a63d af90 0c3e fed9 80bd cb6d cdbd
00000180: 3c72 4a3d 324a 863d 031d ee3d e241 aabd
00000190: 3dde ec3b 435a 993d 9306 a8bd d0d3 1d3c
000001a0: 2911 993a 5f2a 9bbd 809f aabc 3a80 da3d
000001b0: 43ce 5d3d 373e 4bbb a207 823c e56f 143d
000001c0: c71c 263d 8d9e 9e3d 548a b23d b8df c43d
000001d0: 92c3 9fbd fb7d 84bd 143a 003d b017 9bbd
000001e0: a194 a2bd 1cbc f6bd 5d76 86bd 637d d8bb
000001f0: b8eb 25bc ad3e 8fbd 7318 bcba 9a03 17bd
00000200: 89a5 22bd 85da 25be 5b99 e7bc 9780 9ebd
00000210: 449d 56bc d877 8bbd cca6 e43c 7300 843d
00000220: d1be 09be 02c4 d43d 4c74 6ebd 3eae 8fbd
00000230: 323b 0dbd 9fe3 ab3d de69 e03c 361d bfbc
00000240: bf81 12bc 520b 9b3c ffdb 99bd e18f 92bd
00000250: ed2d 403d 414a 6b3d c5c7 90bc 5ba5 783c
00000260: 7d53 a4bc cc5e c43d f326 cdbd eea9 f7bd
00000270: 7511 9d3d 4609 5d3d 216d 503d c521 523d
00000280: 5593 713c 6e4c bbbd 6548 b03c 07b6 87bd
00000290: 0bc3 70bc b40c 86bd 2a46 d6bd 301f 863d
000002a0: fecc 9fbc fe2e a0bd ae49 5d3c ce85 a33c
000002b0: 3f37 1f3d 2f9e 0a3d 2634 eb3d a37c 7e3c
000002c0: 5437 1bbc 93f9 22bd fe06 fc3d 0f55 50bb
000002d0: aea5 613a 3af0 67bd e63b 3f3d 3f9f a03d
000002e0: 2b7c 603d 8b49 84bd 42a7 7d3d b56b 9ebd
000002f0: eec0 f6bc 2df0 c0bd 8368 8dbd 7226 f43c
00000300: e554 033d f149 ac3d 50a8 e8bc 1baf b43d
00000310: 3e90 f33c 82ae 023d ffdd c4bd f1b2 06bd
00000320: e7a6 083d 5349 1a3d 4f61 583d b87a 4c3d
00000330: 0939 233c b2b9 233c 639b 1b3d 805e 9cbd
00000340: 0656 163d d221 99bd ad29 e7bc 387a be3c
00000350: 542d d23d c696 9bbc 431e 99bd bc32 c9bd
00000360: 9b20 24bd 6d88 ed3d 360a 123c ce13 d23d
00000370: e482 cabd 69f3 f6bc d5e7 ad3c bd2d 0cbd
00000380: 2a75 57bc f635 b8bd 709b b73d 1774 9dbd
00000390: d287 ebbc 1380 313d 2a87 623d 3845 dc3c
000003a0: 0a21 773d c76d 3bbd d1d9 da3d e144 8abd
000003b0: a30b 28bd ddce aebd e050 b6bd 4fb8 c23d
000003c0: 5cc1 6e3d 9669 9abd 3a28 853d 4cd0 023c
000003d0: 0432 85bd d3d0 f53c 3715 92bd 6fea 73ba
000003e0: d5f5 043c d281 5ebd 7e19 dfbc 7bd9 7f3d
000003f0: 6667 23bd 6631 8cbc f34f a3bd 3db0 3bbc

gru.weight_hh_l0 f4 [192, 64]
0.086134225 0.007793592 -0.061124753 0.067159764 -0.05154268 0.059306793 0.0763482 0.021194804
-0.0048425077 0.13418832 0.07181624 0.039578684 0.06703898 -0.042074062 0.08685512 0.05336775
-0.013445337 -0.028915798 -0.04406252 0.04092346 -0.012606962 0.07848602 -0.10764907 0.079498425
-0.08478705 -0.08667573 -0.01879737 0.013371932 0.10617421 -0.042145647 -0.027816797 -0.08965828
0.0073087737 0.009075726 0.0265128 0.070888124 0.0019134457 -0.046887904 0.04842415 0.0011676016
-0.018878112 0.027317038 0.11104319 0.025058603 -0.10017692 0.04005781 -0.03978607 -0.03194046
-0.085047245 0.050675977 0.095078595 -0.015460336 0.012426513 0.017081216 -0.0614835 -0.06283644
-0.08920484 0.0934603 -0.10771745 0.008080747 -0.014460624 -0.06649513 0.032413926 -0.0034396118
-0.029563494 -0.09088004 -0.12451759 0.035934273 0.008510581 0.058628842 -0.028386502 -0.046476927
0.043753568 0.10674105 -0.019763326 0.027349418 -0.019375274 0.03129554 -0.04829184 -0.040773388
-0.01999596 -0.015599665 -0.01223408 0.076808445 -0.028532606 0.0028033783 -0.03913716 -0.043703306
0.0937379 -0.12401847 -0.086715214 0.066554226 -0.053074412 -0.06569558 0.1040649 -0.10617213
0.040787548 -0.014181889 0.0517523 0.00011395868 0.10083192 0.0053240433 -0.029482367 0.04189136
0.037892014 0.07020702 0.012220788 0.073478006 0.09515774 -0.0007519205 -0.036548723 -0.0650293
0.095681824 -0.05858469 0.054503858 -0.04702078 -0.06271994 -0.0490635 0.10790838 0.039594177
0.05588414 -0.079960644 -0.06565066 -0.030649872 -0.03954018 0.017638033 -0.009111993 -0.05752189
-0.056329202 0.03503884 0.07255702 -0.009370964 -0.016648747 0.033737205 0.02726582 -0.044030108
-0.022991393 0.027689027 -0.0067029768 0.116090216 -0.00032178828 -0.009928652 -0.05108036 0.023400346
-0.06383756 0.02949821 0.0048608216 0.015993036 -0.007941629 -0.0457596 0.072203204 0.013571763
0.019566638 0.010675581 -0.002075931 -0.07951325 -0.055778295 -0.016473 -0.058840804 0.091756485
-0.008239773 0.016959457 -0.028574614 -0.058933806 -0.03926238 0.039297022 -0.056408543 0.026300069
-0.006307381 0.0025109462 0.05333403 0.020412989 0.009957985 0.009629047 -0.019447122 0.075460985
-0.049820192 0.022708433 0.06655979 0.0068574413 -0.06214163 -0.05469079 0.022523548 -0.045664996
0.061732396 0.06826651 -0.049573954 0.036037203 -0.036194004 0.040515047 0.021583213 -0.05217762
0.06410992 -0.045215182 0.10850972 0.03256447 0.085309885 0.02908872 0.07310237 0.07568656
0.06744842 -0.051570445 -0.07745546 -0.05450413 0.057472803 -0.005685633 -0.13879792 -0.049089048
-0.03556433 0.08051528 -0.14494899 0.019019786 0.08190985 0.09345581 0.10299858 0.049372263
-0.086288705 0.11051652 -0.037957042 -0.085573 -0.012033902 0.02760465 -0.075154975 0.018632915
0.095706776 -0.061020248 0.07326609 0.009581945 0.08481098 0.0437686 0.0814368 0.06021898
0.03605799 -0.10927785 -0.057775293 -0.10431282 -0.093035676 -0.089917056 -0.033879135 0.1362297
0.029375667 0.09166977 -0.111614786 -0.02034891 -0.10037192 0.06563795 0.07591083 0.06626521
0.073879465 0.07687125 -0.009072604 0.041387353 -0.07089962 -0.12906677 -0.03278287 0.09842108
00000000: 2467 b03d 6361 ff3b f35d 7abd 0f8b 893d
00000010: 6b1e 53bd aeeb 723d 725c 9c3d baa0 ad3c
00000020: e6ad 9ebb aa68 093e 6514 933d 421d 223d
00000030: bc4b 893d da55 2cbd 19e1 b13d 2498 5a3d
00000040: d549 5cbc d3e0 ecbc e77a 34bd 5c9f 273d
00000050: 6e8d 4ebc 47bd a03d 1e77 dcbd 12d0 a23d
00000060: d5a4 adbd 0c83 b1bd f1fc 99bc f315 5b3c
00000070: dd71 d93d eaa0 2cbd 0de0 e3bc c39e b7bd
00000080: 707e ef3b 5bb2 143c 5f31 d93c cb2d 913d
00000090: 95cc fa3a 880d 40bd 6758 463d 350a 993a
000000a0: 45a6 9abc fbc7 df3c 9d6a e33d b347 cd3c
000000b0: 8f29 cdbd a813 243d b8f6 22bd 00d4 02bd
000000c0: 402d aebd 9d91 4f3d 91b8 c23d 594d 7dbc
000000d0: 9398 4b3c e8ed 8b3c 1fd6 7bbd 64b0 80bd
000000e0: 07b1 b6bd 1d68 bf3d f79a dcbd 1c65 043c
000000f0: 41ec 6cbc 992e 88bd 77c4 043d 1c6b 61bb
00000100: 242f f2bc 501f babd 1403 ffbd d12f 133d
00000110: f76f 0b3c cc24 703d cf8a e8bc 975e 3ebd
00000120: f136 333d 0d9b da3d b3e6 a1bc e30b e03c
00000130: e5b8 9ebc c12f 003d aacd 45bd ff01 27bd
00000140: 91ce a3bc bd95 7fbc 7371 48bc bf4d 9d3d
00000150: 36bd e9bc e2b8 373b 494e 20bd 3d02 33bd
00000160: a8f9 bf3d 65fd fdbd bf97 b1bd 954d 883d
00000170: 8e64 59bd 678b 86bd fa1f d53d c670 d9bd
00000180: d810 273d 275b 68bc 38fa 533d 1afd ee38
00000190: f780 ce3d 5075 ae3b 0185 f1bc 4696 2b3d
000001a0: a834 1b3d b3c8 8f3d b339 483c a37b 963d
000001b0: 10e2 c23d 881c 45ba 1db4 15bd 152e 85bd
000001c0: d5f4 c33d 80f6 6fbd 703f 5f3d dd98 40bd
000001d0: 5073 80bd cff6 48bd 12ff dc3d 812d 223d
000001e0: c5e6 643d 68c2 a3bd da73 86bd 7115 fbbc
000001f0: e2f4 21bd a37d 903c 784a 15bc 139c 6bbd
00000200: 73b9 66bd e384 0f3d c698 943d ac88 19bc
00000210: f462 88bc 0630 0a3d 925c df3c ea58 34bd
00000220: 7258 bcbc 19d4 e23c a5a4 dbbb b5c0 ed3d
00000230: b1b5 a8b9 c9ab 22bc a439 51bd 15b2 bf3c
00000240: 44bd 82bd 3ba6 f13c 8747 9f3b d403 833c
00000250: 9b1d 02bc 6b6e 3bbd 46df 933d 1a5c 5e3c
00000260: 374a a03c a2e8 2e3c 580c 08bb d8d7 a2bd
00000270: c877 64bd 63f2 86bc 0e03 71bd d3ea bb3d
00000280: 1d00 07bc 8fee 8a3c 4f15 eabc 9364 71bd
00000290: 97d1 20bd eaf5 203d a50c 67bd 3e73 d73c
000002a0: 26ae cebb b08e 243b c974 5a3d 2439 a73c
000002b0: d126 233c 26c3 1d3c 924f 9fbc 4a8b 9a3d
000002c0: 4210 4cbd 0907 ba3c 8050 883d 63b4 e03b
000002d0: 3988 7ebd 7303 60bd 4e83 b83c 380b 3bbd
000002e0: 1cdb 7c3d 50cf 8b3d 0f0e 4bbd bf9b 133d
000002f0: 2a40 14bd 1bf3 253d 47cf b03c 33b8 55bd
00000300: 104c 833d 8e33 39bd 583a de3d 5262 053d
00000310: f3b6 ae3d 784b ee3c b2b6 953d 8e01 9b3d
00000320: 6622 8a3d 883b 53bd f8a0 9ebd b93f 5fbd
00000330: 9a68 6b3d 8c4e babb 0b21 0ebe 9911 49bd
00000340: e7ab 11bd 32e5 a43d 826d 14be 62cf 9b3c
00000350: 5ac0 a73d c265 bf3d ebf0 d23d 923a 4a3d
00000360: 22b8 b0bd 7c56 e23d d878 1bbd e640 afbd
00000370: d829 45bc 2623 e23c daea 99bd 0ea4 983c
00000380: ea01 c43d 5ef0 79bd 880c 963d 97fd 1c3c
00000390: 61b1 ad3d b446 333d 56c8 a63d 2da8 763d
000003a0: 8bb1 133d 11cd dfbd c9a5 6cbd f6a1 d5bd
000003b0: 7d89 bebd 6f26 b8bd d9c4 0abd cc7f 0b3e
000003c0: 3da5 f03c 5cbd bb3d 4b96 e4bd c2b2 a6bc
000003d0: cb8f cdbd 316d 863d 2377 9b3d 0eb6 873d
000003e0: 1e4e 973d ad6e 9d3d 42a5 14bc c985 293d
000003f0: d233 91bd 142a 04be 5547 06bd fe90 c93d

gru.bias_ih_l0 f4 [192]
0.08983157 0.020100538 -0.08891244 -0.007309401 0.07555896 0.049395815 0.005931574 0.039970342
-0.013549297 0.05237086 0.07657394 -0.07745873 0.050028447 -0.09628705 -0.12303547 -0.09724871
-0.006411332 0.018535607 -0.09265792 0.027770955 -0.090387195 0.10682349 0.12838583 -0.04604059
0.03729588 0.06340742 -0.06445206 0.08700882 0.11220506 -0.08957012 -0.07584708 -0.051452804
-0.05090103 -0.087501936 0.047316037 -0.057303745 -0.06404723 0.01438641 -0.09928829 0.035571948
0.07742477 -0.094256565 -0.11993894 0.045163628 0.04965078 0.05492058 0.04304184 0.03249841
-0.020323655 -0.07434915 -0.00039609623 -0.008977482 -0.059119668 0.0535639 0.0062779495 -0.05677095
0.07902317 0.022776537 -0.09224335 0.0006741389 -0.04885756 0.053758655 0.07296836 0.11771894
0.058518376 -0.053104967 -0.05100602 -0.038398623 0.018943144 -0.00383303 -0.09905754 -0.08481127
0.12174808 -0.10458281 0.052790552 -0.048343524 -0.02196519 -0.006431134 -0.107665904 0.0033598726
-0.011821064 -0.10797005 -0.022903746 0.08138949 0.033635817 0.046716873 0.01579599 -0.027493134
0.06204787 0.04253071 0.016284956 -0.004622699 0.048866574 0.044164438 0.09460643 0.05880494
0.04615534 0.118827894 0.07321303 -0.03942034 0.059128266 -0.027918732 -0.0151375355 -0.008028827
-0.09254541 0.034257352 -0.09147547 -0.07080095 0.092456736 -0.01090084 -0.035544634 -0.08619722
0.008175288 -0.10152053 -0.01731328 0.03142683 0.07586022 -0.026364863 -0.078538544 -0.028570188
-0.0634633 0.029139042 0.08259566 -0.06298415 0.109937906 0.041893456 0.055245474 -0.018752635
0.076234266 0.056903638 -0.09592664 -0.13283472 0.04482458 -0.09218153 -0.0722864 -0.10388307
-0.01268435 -0.038985554 -0.06414762 0.09977239 0.08074013 0.04957509 0.021210233 -0.06784869
0.0405749 0.14010984 -0.07855136 0.004051964 0.004003222 -0.118517146 -0.09317962 -0.09740643
-0.043666422 -0.10532934 -0.02853596 -0.09000117 -0.15049192 0.105860025 -0.11017885 0.12418078
-0.104085445 -0.01543782 0.10700082 0.07938192 -0.12707411 0.082765 -0.058773067 0.049871746
0.0443293 0.14741507 0.14373012 -0.114408165 -0.006196789 -0.00597187 -0.017063849 -0.027566785
-0.08419422 -0.062015608 0.15110502 0.07479686 -0.03655367 -0.073654205 0.011974858 -0.13570556
-0.07201242 -0.14271069 -0.10549516 0.026408158 -0.13811506 -0.039713763 0.12766038 -0.123820044
00000000: 9df9 b73d e2a9 a43c ba17 b6bd b383 efbb
00000010: a8be 9a3d 4453 4a3d a65d c23b f1b7 233d
00000020: dffd 5dbc d482 563d ccd2 9c3d afa2 9ebd
00000030: a1ea 4c3d 2532 c5bd 05fa fbbd 552a c7bd
00000040: 2716 d2bb fcd7 973c 70c3 bdbd ea7f e33c
00000050: ec1c b9bd 46c6 da3d 9377 033e 0f95 3cbd
00000060: 91c3 183d c0db 813d 71ff 83bd ae31 b23d
00000070: c4cb e53d 8a70 b7bd b755 9bbd 2dc0 52bd
00000080: 997d 50bd 3734 b3bd 76ce 413d 55b7 6abd
00000090: 322b 83bd fab4 6b3c a957 cbbd e4b3 113d
000000a0: e190 9e3d 9609 c1bd 8ca2 f5bd 7ffd 383d
000000b0: 9e5e 4b3d 67f4 603d a44c 303d 0e1d 053d
000000c0: cb7d a6bc 5e44 98bd 23ab cfb9 4a16 13bc
000000d0: 7727 72bd d265 5b3d 42b7 cd3b a888 68bd
000000e0: e6d6 a13d dc95 ba3c 15ea bcbd b2b8 303a
000000f0: dd1e 48bd 0932 5c3d 6f70 953d a116 f13d
00000100: f7b0 6f3d 9884 59bd b0eb 50bd e047 1dbd
00000110: a72e 9b3c 9233 7bbb aede cabd 88b1 adbd
00000120: 0f57 f93d 832f d6bd e83a 583d dc03 46bd
00000130: 58f0 b3bc 43bc d2bb f17f dcbd 4f31 5c3b
00000140: 23ad 41bc 671f ddbd a3a0 bbbc 88af a63d
00000150: b6c5 093d 315a 3f3d 9866 813c 4839 e1bc
00000160: e825 7e3d af34 2e3d 0768 853c 037a 97bb
00000170: 5128 483d c5e5 343d 04c1 c13d 73dd 703d
00000180: 620d 3d3d 0a5c f33d b7f0 953d 3977 21bd
00000190: 7b30 723d d3b5 e4bc 6d03 78bc 578b 03bc
000001a0: 7388 bdbd 7051 0c3d 7e57 bbbd 1700 91bd
000001b0: f559 bd3d 7099 32bc 4097 11bd 2b88 b0bd
000001c0: a5f1 053c ffe9 cfbd 94d4 8dbc 6bb9 003d
000001d0: 9a5c 9b3d 20fb d7bc d1d8 a0bd 070c eabc
000001e0: 0cf9 81bd 00b5 ee3c ea27 a93d d6fd 80bd
000001f0: 2027 e13d 7998 2b3d 1449 623d 209f 99bc
00000200: b620 9c3d ca13 693d 3075 c4bd d305 08be
00000210: fb99 373d acc9 bcbd e40a 94bd a6c0 d4bd
00000220: 05d2 4fbc 51af 1fbd d45f 83bd 7855 cc3d
00000230: 155b a53d 400f 4b3d 15c1 ad3c 41f4 8abd
00000240: de31 263d f478 0f3e 89df a0bd 56c6 843b
00000250: 762d 833b 1eb9 f2bd f5d4 bebd 067d c7bd
00000260: 90db 32bd e9b6 d7bd 3fc4 e9bc 8952 b8bd
00000270: 8e1a 1abe 24cd d83d 73a5 e1bd 7e52 fe3d
00000280: c02a d5bd e9ee 7cbc 3f23 db3d fd92 a23d
00000290: b71f 02be b280 a93d 07bc 70bd 5146 4c3d
000002a0: a492 353d faf3 163e fd2d 133e d44e eabd
000002b0: 6f0e cbbb adaf c3bb 7cc9 8bbc bdd3 e1bc
000002c0: 056e acbd 1404 7ebd 46bb 1a3e 192f 993d
000002d0: 4db9 15bd 04d8 96bd 3232 443c 66f6 0abe
000002e0: 3f7b 93bd c022 12be d90d d8bd ec55 d83c
000002f0: 096e 0dbe e6aa 22bd 67b9 023e 5d95 fdbd

gru.bias_hh_l0 f4 [192]
-0.08120641 -0.0600832 0.11307734 0.092831045 0.11096499 -0.13236077 0.018698562 -0.13093105
-0.1105909 -0.007869179 -0.021020738 -0.0064725466 0.050624415 -0.03913573 -0.10586578 0.016463233
0.032693937 0.13047183 -0.07194829 0.080867074 -0.10581115 0.0824247 -0.00037668174 -0.025345556
-0.06447756 0.10149516 -0.039071277 -0.053677693 -0.02371856 0.051256344 -0.03423081 0.001188525
-0.04239986 0.10731941 0.0389822 0.07360228 0.020942345 -0.0016591639 0.09806635 0.06610079
-0.03459658 -0.0621239 -0.110715464 0.03849229 -0.030950211 -0.098395966 -0.06873827 0.063901894
-0.029018665 0.10967626 -0.06237321 0.117653914 0.00044000192 -0.07681226 0.018394874 -0.102656394
0.026940268 -0.09832125 -0.09257428 0.011215011 -0.021477666 -0.107716456 -0.011222634 0.049295917
0.021559415 0.043363024 0.021136533 0.08926219 0.034669425 -0.04228915 0.06479787 0.040963504
-0.0033021723 -0.10258999 0.049934406 0.006436485 0.066294 0.058552537 -0.0580403 0.04034298
-0.0013633608 -0.03158639 -0.06356191 -0.06880886 0.035627514 0.09493015 0.08461795 0.0439585
0.0918489 0.06008859 -0.085451774 0.08810451 0.042647295 -0.0048637073 -0.061077736 -0.009360337
0.09196885 0.08749882 0.00276157 -0.025771933 0.04902236 -0.1036611 0.11796348 0.09613975
0.0031911656 -0.025458222 0.05035984 0.03049762 -0.017472316 -0.07437897 0.046141002 -0.03513641
0.10987433 0.11231479 -0.06045414 -0.08439484 -0.043892946 0.117900774 0.118578844 0.048895985
-0.07619651 0.015577534 0.09624707 0.004248489 0.05394965 0.111773975 0.061708484 -0.05811675
-0.043961108 0.08893943 0.009562776 -0.022888 0.06542033 0.01609051 -0.0327155 0.09650207
-0.123576544 -0.12990576 0.039965183 -0.041414205 0.11880938 0.02281507 0.09682775 -0.060231484
0.06095595 0.013657444 0.030138116 0.0730305 0.001366282 -0.041629758 0.032756574 -0.038283158
-0.0059113153 -0.13321403 -0.0132308565 -0.09944249 -0.14054064 0.08189827 -0.11033204 0.054411177
0.09066497 0.11964437 0.09865968 -0.06142777 0.07926483 0.11645436 0.15125088 0.12844197
0.041766826 0.02538104 0.07434516 -0.01781095 0.13024 0.026557595 0.029083928 -0.13852708
0.014160994 0.12901166 0.10067655 0.072133146 0.042080782 -0.022208715 -0.0034117987 -0.08449236
-0.11267276 -0.011792308 -0.006375612 0.07111985 0.08307041 0.07754749 0.1484293 -0.108687945
00000000: 8c4f a6bd cd19 76bd 1895 e73d 341e be3d
00000010: 9d41 e33d 9589 07be ba2d 993c ca12 06be
00000020: 7b7d e2bd bbed 00bc af33 acbc a817 d4bb
00000030: 8c5b 4f3d ca4c 20bd 28d0 d8bd e7dd 863c
00000040: 14ea 053d 689a 053e a059 93bd a39d a53d
00000050: 84b3 d8bd 48ce a83d 5e7d c5b9 7ca1 cfbc
00000060: d00c 84bd b2dc cf3d 3409 20bd 24dd 5bbd
00000070: 6d4d c2bc 2cf2 513d 9b35 0cbd 48c8 9b3a
00000080: 7aab 2dbd 47ca db3d cdab 1f3d cbbc 963d
00000090: 488f ab3c 4d78 d9ba 03d7 c83d da5f 873d
000000a0: 25b5 0dbd a175 7ebd cabe e2bd 17aa 1d3d
000000b0: 4c8b fdbc d383 c9bd a6c6 8cbd ffde 823d
000000c0: 8db8 edbc f29d e03d 0d7b 7fbd 89f4 f03d
000000d0: 0fb0 e639 bf4f 9dbd d9b0 963c 843d d2bd
000000e0: d6b1 dc3c a75c c9bd 9697 bdbd 2abf 373c
000000f0: eef1 afbc 729a dcbd 24df 37bc 84ea 493d
00000100: 5f9d b03c 6d9d 313d 8626 ad3c 18cf b63d
00000110: 8701 0e3d 6337 2dbd bfb4 843d 59c9 273d
00000120: 4269 58bb b31a d2bd 0588 4c3d 26e9 d23b
00000130: 26c5 873d c9d4 6f3d aabb 6dbd ae3e 253d
00000140: ccb2 b2ba bb60 01bd bf2c 82bd a9eb 8cbd
00000150: 28ee 113d bd6a c23d 2d4c ad3d d40d 343d
00000160: 471b bc3d 741f 763d 5701 afbd 2370 b43d
00000170: eeae 2e3d bc5f 9fbb a62c 7abd 195c 19bc
00000180: 2a5a bc3d 9532 b33d 75fb 343b a91f d3bc
00000190: accb 483d 454c d4bd d696 f13d ebe4 c43d
000001a0: e022 513b c38d d0bc 1f46 4e3d 25d6 f93c
000001b0: 1a22 8fbc 0054 98bd 59fe 3c3d 32eb 0fbd
000001c0: cb05 e13d 4c05 e63d c39e 77bd 34d7 acbd
000001d0: 17c9 33bd f675 f13d 77d9 f23d 2847 483d
000001e0: ea0c 9cbd ea38 7f3c 2f1d c53d e936 8b3b
000001f0: 4ffa 5c3d c1e9 e43d 09c2 7c3d d40b 6ebd
00000200: 9010 34bd e025 b63d 31ad 1c3c 9d7f bbbc
00000210: 18fb 853d 3fd0 833c b000 06bd e1a2 c53d
00000220: b315 fdbd 0406 05be 88b2 233d f1a1 29bd
00000230: 5552 f33d abe6 ba3c a14d c63d 4ab5 76bd
00000240: f2ac 793d 79c3 5f3c 36e4 f63c 0491 953d
00000250: d114 b33a f783 2abd c22b 063d cdce 1cbd
00000260: b5b3 c1bb 4269 08be 3cc6 58bc 81a8 cbbd
00000270: e3e9 0fbe 48ba a73d c4f5 e1bd 41de 5e3d
00000280: 8eae b93d 1c08 f53d 160e ca3d af9b 7bbd
00000290: 9955 a23d a07f ee3d 83e1 1a3e 4b86 033e
000002a0: b113 2b3d e6eb cf3c 4642 983d 45e8 91bc
000002b0: a25d 053e 508f d93c 6b41 ee3c 0bda 0dbe
000002c0: 8403 683c a21b 043e 822f ce3d 8bba 933d
000002d0: e65c 2c3d 0def b5bc 7c98 5fbb 550a adbd
000002e0: fac0 e6bd 8634 41bc 83ea d0bb 49a7 913d
000002f0: d220 aa3d 38d1 9e3d dafd 173e c997 debd

gru.weight_ih_l1 f4 [192, 64]
-0.09654553 -0.09311925 -0.00096908584 -0.007926377 -0.08665486 0.112736806 -0.09002071 0.0976586
-0.047184806 0.02072444 0.09908612 0.06802232 0.021278111 -0.13245541 0.06803711 0.16078262
-0.07265601 -0.033289142 -0.09186737 0.035856996 -0.06908844 0.0011720808 -0.045354724 0.011176691
-0.050573725 -0.044517606 -0.04664314 -0.050923426 -0.021423215 -0.06584155 0.0023249271 0.021402294
-0.0065318025 -0.11078043 -0.044295236 0.018839747 -0.0010140992 -0.034624312 0.063429765 -0.10219533
-0.05778223 0.006803901 0.07004918 0.05559478 -0.08113683 0.022153514 0.026989672 0.028130589
-0.048466496 0.04887102 -0.012238318 -0.12715764 -0.083179064 0.012701584 -0.024515087 -0.081437685
-0.014435205 0.12278643 0.005890839 0.09852788 0.13843015 0.0017714546 -0.06593486 -0.0041345204
-0.009817149 -0.029135536 0.06593837 0.032631334 0.07016327 0.045856036 0.10237359 -0.030161941
0.11744 0.0153716635 -0.06504208 -0.07154933 -0.033156965 0.14186263 -0.004928495 -0.043366194
-0.055455003 -0.12927416 0.03314144 0.02842345 0.075829074 0.034204196 -0.029898014 0.042924423
0.00022176889 -0.00409802 -0.001772502 -0.009209788 0.07194381 -0.021506729 0.06448451 0.087718025
-0.043677207 0.015764939 0.017470611 -0.009069599 -0.022682816 0.08508159 0.03697975 0.06117148
-0.036608577 0.11751693 -0.042159863 0.12774414 -0.08544805 0.11446966 -0.021498894 -0.06946938
-0.06798158 -0.13551949 0.06611568 -0.0033073428 0.023727683 0.044883482 -0.06009106 0.041580513
-0.062237926 -0.019830486 0.09469268 -0.071104966 -0.00012973286 0.1454423 0.045333777 -0.070036866
0.076267056 -0.01848881 -0.087204695 0.067224704 0.0675245 0.165886 0.044849455 0.060182594
0.011697441 0.050694466 0.030426208 -0.08562904 0.039716925 -0.029457524 -0.093398206 0.07167716
0.057624392 0.016623737 0.044571247 -0.013182635 -0.12817487 0.12728299 -0.11923888 0.025019854
-0.0022619993 0.08382507 0.04045887 -0.006992543 0.05036027 0.010133595 -0.011725002 -0.11094438
0.1337574 -0.11612326 0.010618495 0.0122167915 0.08276404 -0.00029491505 0.018519595 0.068855
-0.054093614 -0.11297229 -0.043116916 0.10664972 -0.0457794 -0.020260537 -0.036540683 -0.057598803
0.08749559 -0.13225512 -0.106732324 0.044067334 -0.07340935 -0.10029683 0.0022805966 -0.010393014
-0.020759435 0.051492985 -0.05576851 -0.054559544 0.0077719586 -0.063703775 -0.008878247 0.015688702
0.023456775 0.022749333 -0.042276304 -0.016983278 -0.094469935 0.045063052 -0.012176799 0.01333651
0.07839575 0.043493114 0.074868634 0.05624827 -0.02747871 0.08104849 0.049002174 -0.010539759
0.036977775 -0.08519218 0.06825798 0.007691111 0.040934157 -0.06307033 -0.054464802 0.06331443
0.0009290639 0.042134814 0.08703584 -0.05592771 0.0919791 0.0010999391 -0.013374272 -0.041482557
0.024237582 0.028183019 -0.029609121 0.004192092 -0.013734139 0.0369289 0.014582102 0.05404192
0.014464321 -0.020961812 0.05772009 0.05729058 -0.033393465 0.0120686265 0.022366187 0.017705707
-0.07079522 0.04974659 -0.093932875 0.024334796 0.048276342 -0.0027349696 0.045380745 -0.028289128
-0.017913202 -0.065243915 -0.02729166 -0.058071617 -0.006068177 0.032868236 0.07486408 -0.059655212
00000000: aab9 c5bd 4eb5 bebd 400a 7eba a2dd 01bc
00000010: 1a78 b1bd 8ee2 e63d c75c b8bd 3b01 c83d
00000020: db44 41bd 4dc6 a93c aaed ca3d 494f 8b3d
00000030: 6f4f ae3c 64a2 07be 0a57 8b3d 33a4 243e
00000040: adcc 94bd 325a 08bd f624 bcbd c9de 123d
00000050: 3d7e 8dbd 81a0 993a e0c5 39bd 711e 373c
00000060: 6526 4fbd 1858 36bd e10c 3fbd 1595 50bd
00000070: bd7f afbc efd7 86bd ce5d 183b dd53 af3c
00000080: bb08 d6bb dae0 e2bd ec6e 35bd d055 9a3c
00000090: 86eb 84ba 39d2 0dbd 77e7 813d c94b d1bd
000000a0: 0fad 6cbd 42f3 de3b f275 8f3d 5ab7 633d
000000b0: 112b a6bd 497b b53c 7219 dd3c 1f72 e63c
000000c0: ce84 46bd fb2c 483d 3a83 48bc 9d35 02be
000000d0: c959 aabd 4e1a 503c ddd3 c8bc cdc8 a6bd
000000e0: a381 6cbc 7477 fb3d f007 c13b fcc8 c93d
000000f0: a2c0 0d3e 2730 e83a db08 87bd df7a 87bb
00000100: 1bd8 20bc a6ad eebc b20a 873d 6fa8 053d
00000110: c3b1 8f3d 8ad3 3b3d 3fa9 d13d 2d16 f7bc
00000120: 6284 f03d 6ed9 7b3c c834 85bd 7588 92bd
00000130: 99cf 07bd 7044 113e 367f a1bb c0a0 31bd
00000140: c924 63bd 7260 04be 52bf 073d 4cd8 e83c
00000150: 464c 9b3d b319 0c3d aeec f4bc 85d1 2f3d
00000160: a28a 6839 af48 86bb 4c53 e8ba a7e4 16bc
00000170: 4757 933d e12e b0bc 7410 843d 82a5 b33d
00000180: dfe6 32bd 7925 813c 871e 8f3c a898 14bc
00000190: 50d1 b9bc 423f ae3d 1478 173d f28e 7a3d
000001a0: e0f2 15bd b7ac f03d d2af 2cbd 5ccf 023e
000001b0: 63ff aebd 126f ea3d 731e b0bc f645 8ebd
000001c0: ed39 8bbd 9fc5 0abe a867 873d 01c0 58bb
000001d0: 8f60 c23c bed7 373d 0b22 76bd 5450 2a3d
000001e0: 32ed 7ebd 8b73 a2bc 3cee c13d 7b9f 91bd
000001f0: e608 08b9 d4ee 143e e9af 393d 7d6f 8fbd
00000200: e731 9c3d d875 97bc 6098 b2bd 1bad 893d
00000210: 494a 8a3d 05de 293e 10b4 373d 0682 763d
00000220: a0a6 3f3c 00a5 4f3d 6240 f93c 475e afbd
00000230: 37ae 223d e850 f1bc 8f47 bfbd 7acb 923d
00000240: 8e07 6c3d 812e 883c 5790 363d fbfb 57bc
00000250: 4640 03be 7956 023e 8433 f4bd 70f6 cc3c
00000260: 0d3e 14bb 7aac ab3d 33b8 253d b421 e5bb
00000270: 9246 4e3d 6107 263c 391a 40bc cf36 e3bd
00000280: b3f7 083e 08d2 edbd 32f9 2d3c f028 483c
00000290: 3180 a93d d49e 9ab9 68b6 973c da03 8d3d
000002a0: 4491 5dbd 045e e7bd 5d9b 30bd 2b6b da3d
000002b0: 2e83 3bbd 6df9 a5bc afab 15bd b9ec 6bbd
000002c0: e330 b33d e36d 07be 7a96 dabd f37f 343d
000002d0: a457 96bd 6d68 cdbd 1076 153b 7647 2abc
000002e0: b10f aabc 4fea 523d 856d 64bd d479 5fbd
000002f0: eaab fe3b 2077 82bd 1176 11bc 9885 803c
00000300: 6c28 c03c cf5c ba3c eb29 2dbd 8420 8bbc
00000310: 7479 c1bd 0994 383d 3281 47bc 6181 5a3c
00000320: f38d a03d d625 323d ba54 993d 9664 663d
00000330: 081b e1bc c0fc a53d 81b6 483d f4ae 2cbc
00000340: 0276 173d 3d79 aebd d7ca 8b3d b705 fc3b
00000350: 93aa 273d 042b 81bd 7c16 5fbd ffaa 813d
00000360: 6c8c 733a 8e95 2c3d d93f b23d 7414 65bd
00000370: 8a5f bc3d d52b 903a c31f 5bbc 9de9 29bd
00000380: e58d c63c 13e0 e63c d48e f2bc d15d 893b
00000390: 2705 61bc c242 173d c5e9 6e3c 0f5b 5d3d
000003a0: c2fb 6c3c 1bb8 abbc e76b 6c3d 87a9 6a3d
000003b0: 96c7 08bd 7dbb 453c 4b39 b73c 8f0b 913c
000003c0: 16fd 90bd 15c3 4b3d e15f c0bd c459 c73c
000003d0: 6abd 453d 2d3d 33bb 29e1 393d 9abe e7bc
000003e0: b5be 92bc 9a9e 85bd c292 dfbc 81dc 6dbd
000003f0: 8fd7 c6bb d8a0 063d 5752 993d 0659 74bd

gru.weight_hh_l1 f4 [192, 64]
0.10041625 0.14422579 0.01716244 0.08622502 0.0430942 -0.021042565 -0.103664726 0.04211072
-0.031606708 0.03417476 0.05454118 0.028179321 -0.091853045 -0.1413801 0.028817229 -0.030490095
0.1427608 -0.033959687 -0.03965812 -0.0788371 0.025874648 -0.12665574 0.07481077 0.05062507
0.07079907 0.008864466 0.05150484 -0.065193824 -0.031243853 -0.08210701 -0.038876936 0.077801116
0.013093065 -0.07245048 0.080229476 -0.1041125 0.12467001 -0.09307346 -0.005327482 0.076738834
-0.056035243 -0.045303326 -0.016215993 0.11393975 0.06162045 -0.062082823 -0.020559045 0.05937937
-0.043362368 -0.11946201 -0.07963933 -0.087649204 -0.10048329 0.085878745 0.026850194 -0.09255671
0.07486909 0.08321699 0.13567705 0.07135584 0.028714653 0.07624584 -0.07370007 0.11314379
-0.01708793 0.008806695 0.07372431 0.042104512 -0.11895584 0.003506477 -0.05747136 0.044581357
-0.028174913 0.07369914 0.084597655 0.04376206 -0.03547454 0.10037719 -0.1061548 0.055272687
0.024724133 -0.019305373 0.013072311 -0.06377765 0.007978767 0.0021750687 0.07352304 0.008426863
0.08008248 -0.074512914 -0.008098545 0.10165174 -0.0070220153 -0.012839254 -0.004067021 0.06655855
0.058302797 0.061478507 -0.067038886 0.08187976 0.030371724 -0.019038165 0.03855222 0.10503334
-0.0830179 0.03978249 0.09727984 -0.054152716 -0.038974576 0.018208532 0.03051798 0.061332006
0.049608752 -0.05453148 -0.034567595 -0.052744295 -0.09605289 0.09100567 0.1001 0.078157745
-0.009011898 0.039736934 0.0003389223 0.033042897 -0.0063203573 0.0359267 0.02314869 0.09064536
-0.021954618 0.059545822 0.019696137 0.06461811 0.056488227 -0.070378825 0.012694853 0.07634137
-0.12773171 -0.07701452 -0.013387937 -0.105269596 -0.084768705 -0.07133765 -0.0967513 0.06924209
0.008998041 0.07301132 0.06611932 -0.07425081 0.057146333 -0.02105324 0.02014964 0.10391183
-0.1127024 -0.060144607 0.111177295 -0.06361185 -0.08454083 -0.107002005 -0.07080947 -0.073024325
-0.10539635 -0.0905083 0.03992843 -0.047529306 -0.034118418 -0.002984123 -0.023989152 -0.027123878
-0.017010296 -0.05324729 0.1148462 0.11464858 -0.016629571 0.07764021 0.06711317 -0.085780114
0.113202624 -0.1028467 -0.06341268 0.019721232 -0.06770136 0.087242626 -0.10296996 0.08426058
-0.0389946 0.011248333 -0.014074871 -0.068422824 0.015625866 0.04853022 -0.020758899 -0.1083185
0.055779736 -0.04971597 0.0073275743 0.02673448 -0.10265934 -0.10362777 0.009153556 -0.051888186
-0.01852924 -0.054170545 0.07754702 -0.09105821 0.07952167 -0.060942218 -0.056765825 -0.010383137
-0.02225633 0.053257763 0.062157802 -0.047461946 -0.014349688 -0.099797 -0.00014921493 0.039408192
-0.09679754 0.043420237 -0.0058372044 -0.06291121 -0.010429617 0.0062696924 -0.0007552463 -0.050395187
0.091929145 0.09630235 -0.066320434 0.023664553 -0.046871956 0.06475502 -0.06102282 0.004735641
-0.018525 -0.06358445 -0.08505842 0.025869112 -0.05026568 0.044975214 0.012461025 -0.029931191
0.032689925 -0.107749134 -0.039695047 0.07138254 -0.04021822 0.046889544 0.07847184 0.08825846
0.008952473 -0.023870464 -0.08068264 0.071024165 0.042262405 -0.022049678 0.022086913 -0.07989663
00000000: 09a7 cd3d edaf 133e 3f98 8c3c be96 b03d
00000010: 8b83 303d 7561 acbc 2c4e d4bd 4a7c 2c3d
00000020: 0976 01bd d5fa 0b3d 9366 5f3d 52d8 e63c
00000030: 731d bcbd f2c5 10be 1c12 ec3c 5dc6 f9bc
00000040: e32f 123e 5019 0bbd 8e70 22bd 5875 a1bd
00000050: 12f7 d33c 0bb2 01be 6436 993d 3c5c 4f3d
00000060: 1aff 903d 443c 113c bdf6 523d 5784 85bd
00000070: 1cf3 ffbc b827 a8bd 6c3d 1fbd 3156 9f3d
00000080: 4b84 563c eb60 94bd 5a4f a43d ef38 d5bd
00000090: fd52 ff3d 4c9d bebd 2892 aebb 4029 9d3d
000000a0: 3685 65bd fb8f 39bd 67d7 84bc 3e59 e93d
000000b0: ba65 7c3d 8f4a 7ebd 716b a8bc c837 733d
000000c0: bd9c 31bd 80a8 f4bd f219 a3bd 6d81 b3bd
000000d0: 2fca cdbd 32e1 af3d f0f4 db3c 5f8e bdbd
000000e0: f754 993d ab6d aa3d edee 0a3e 0323 923d
000000f0: fe3a eb3c c726 9c3d 10f0 96bd eeb7 e73d
00000100: fdfb 8bbc f549 103c c5fc 963d c875 2c3d
00000110: 1f9f f3bd eccc 653b 1767 6bbd f19a 363d
00000120: 13cf e6bc 93ef 963d 8941 ad3d d93f 333d
00000130: c04d 11bd 8e92 cd3d b067 d9bd 9d65 623d
00000140: 448a ca3c 4d26 9ebc 3f2d 563c db9d 82bd
00000150: 60b9 023c 998b 0e3b 3f93 963d d310 0a3c
00000160: 4902 a43d 3a9a 98bd c2af 04bc ca2e d03d
00000170: ef18 e6bb bc5b 52bc a544 85bb d94f 883d
00000180: eace 6e3d e3d0 7b3d af4b 89bd 93b0 a73d
00000190: 1fce f83c edf5 9bbc efe8 1d3d b81b d73d
000001a0: 4a05 aabd f7f2 223d a73a c73d 3dcf 5dbd
000001b0: cea3 1fbd 0f2a 953c d800 fa3c 4537 7b3d
000001c0: 8c32 4b3d 675c 5fbd c096 0dbd 670a 58bd
000001d0: 61b7 c4bd 2e61 ba3d 3b01 cd3d 2b11 a03d
000001e0: a4a6 13bc 32c3 223d 62b1 b139 fd57 073d
000001f0: 001b cfbb e027 133d 52a2 bd3c 46a4 b93d
00000200: 2cda b3bc 52e6 733d cb59 a13c 8056 843d
00000210: 3360 673d c622 90bd 13fe 4f3c dd58 9c3d
00000220: 1acc 02be cab9 9dbd 1459 5bbc 9697 d7bd
00000230: 379b adbd 7919 92bd 8c25 c6bd ccce 8d3d
00000240: 856c 133c f586 953d 9169 873d cf10 98bd
00000250: 4612 6a3d d877 acbc dc10 a53c bacf d43d
00000260: 84d0 e6bd 315a 76bd ecb0 e33d ee46 82bd
00000270: be23 adbd de23 dbbd 8e04 91bd c78d 95bd
00000280: 0bda d7bd 6a5c b9bd fe8b 233d 17ae 42bd
00000290: c1bf 0bbd 4791 43bb e684 c4bc e532 debc
000002a0: 2d59 8bbc d519 5abd 7c34 eb3d e0cc ea3d
000002b0: bd3a 88bc d501 9f3d a172 893d 7cad afbd
000002c0: c7d6 e73d 4aa1 d2bd 82de 81bd 6c8e a13c
000002d0: 03a7 8abd 43ac b23d eae1 d2bd d090 ac3d
000002e0: cdb8 1fbd ee4a 383c 4a9a 66bc 4421 8cbd
000002f0: d101 803c a0c7 463d 910e aabc 17d6 ddbd
00000300: 4b79 643d f9a2 4bbd 261c f03b 4502 db3c
00000310: 0f3f d2bd cc3a d4bd ccf8 153c b588 54bd
00000320: a2ca 97bc efe1 5dbd f9d0 9e3d ba7c babd
00000330: 42dc a23d 8c9e 79bd 4883 68bd 081e 2abc
00000340: e852 b6bc d024 5a3d 2e99 7e3d 7567 42bd
00000350: f41a 6bbc 5f62 ccbd 9476 1cb9 7c6a 213d
00000360: ca3d c6bd 6bd9 313d 0546 bfbb 98d7 80bd
00000370: fce0 2abc fe71 cd3b b9fb 45ba 2f6b 4ebd
00000380: 5945 bc3d 2b3a c53d 02d3 87bd 2adc c13c
00000390: cffc 3fbd 489e 843d 11f3 79bd 702d 9b3b
000003a0: bec1 97bc 9038 82bd 1c33 aebd 76eb d33c
000003b0: 63e3 4dbd ee37 383d 5429 4c3c 4232 f5bc
000003c0: dfe5 053d 94ab dcbd 4697 22bd 0231 923d
000003d0: dcbb 24bd 400f 403d d8b5 a03d dac0 b43d
000003e0: 65ad 123c fe8b c3bc f13c a5bd 1e75 913d
000003f0: 581b 2d3d 87a1 b4bc 9def b43c d8a0 a3bd

gru.bias_ih_l1 f4 [192]
-0.12401666 -0.022962768 0.050429117 -0.030735722 -0.10827808 0.020109745 0.017851396 0.09026278
0.07771235 0.103524365 0.010181348 0.11141287 -0.070174634 0.15060017 0.04416147 -0.032865528
-0.05941469 0.02208254 -0.080825284 -0.034630723 0.023034668 0.10111583 -0.0067521348 -0.00065240846
0.0099195335 0.0035154512 -0.065482244 -0.050378893 -0.0027481099 0.11936585 0.05413099 0.13116607
-0.06485146 -0.08581812 0.013737594 0.004176791 -0.076755404 -0.014073635 0.11348542 -0.046253614
0.01828364 0.05586687 -0.050992906 0.046099342 0.015020817 -0.029291807 -0.0099459095 0.04355841
0.07368389 0.06126009 0.053447608 0.14969108 -0.015646672 0.13599582 -0.073746026 0.117712654
-0.015716435 0.0031548482 0.015355483 -0.11680788 -0.008983382 -0.0017092217 0.122291796 -0.004269812
-0.017445227 0.072970025 -0.044234872 -0.02835761 -0.07078654 0.023285137 0.11105255 0.09328342
0.057404015 0.042349506 -0.024545958 0.018389424 -0.0072882045 -0.013660259 0.0762211 0.10335274
0.023078341 0.036758937 0.053860556 -0.012389468 -0.00082918303 0.003889183 0.17588136 0.10120744
-0.0022166844 -0.027861517 0.08729242 0.12718451 0.0046043224 0.040494826 0.075796805 0.18602912
0.019907728 -0.031947028 0.1129502 -0.0045422562 0.06927299 -0.09896389 -0.0045875753 -0.056658093
0.031699736 0.008973325 0.042291064 -0.0251081 -0.06428471 0.07581454 -0.03868221 0.15613775
8.7262575e-05 -0.048467368 -0.07614787 0.1759222 0.104606606 0.04912581 0.020185888 -0.030625338
-0.008140259 0.1310044 -0.05583469 0.064152606 0.05352584 0.1506634 0.08315001 0.11384669
-0.117677644 -0.042036094 -0.042136513 -0.096837424 0.15421574 0.046628557 -0.05409626 0.030036611
0.15002955 0.11430521 0.029102001 -0.02261147 0.09544268 0.02730665 0.058966506 -0.13826297
-0.113444105 -0.07582234 0.023952344 0.11264571 -0.085090995 0.061459526 -0.052995097 -0.12264013
-0.046102196 -0.04589887 -0.112113774 -0.058657374 -0.07946975 0.1332061 -0.07461789 0.06382506
0.08265774 -0.07472384 0.109620824 0.053929444 -0.104776345 0.13244365 -0.050807044 -0.1063253
0.060818795 -0.113937445 0.02763969 -0.13481988 -0.11802514 -0.13422918 -0.15561713 0.06634576
0.05903103 0.15568614 0.0828366 -0.082818866 0.117708735 -0.06685066 0.10060117 0.07708339
-0.12281408 0.15449874 -0.08190804 0.11536133 0.07405775 0.0067348527 0.06680207 0.020634936
00000000: 72fc fdbd 6a1c bcbc c38e 4e3d 7bc9 fbbc
00000010: e6c0 ddbd 31bd a43c 173d 923c b1db b83d
00000020: a727 9f3d 9504 d43d abcf 263c 6e2c e43d
00000030: b8b7 8fbd ee36 1a3e a8e2 343d 019e 06bd
00000040: d15c 73bd 71e6 b43c ba87 a5bd f2d8 0dbd
00000050: 33b3 bc3c d115 cf3d 0341 ddbb 6406 2bba
00000060: 8a85 223c 7c63 663b 8e1b 86bd 195a 4ebd
00000070: a219 34bb 1576 f43d 75b8 5d3d 6650 063e
00000080: d8d0 84bd 69c1 afbd a513 613c 76dd 883b
00000090: f031 9dbd 1b95 66bc 0b6b e83d 6e74 3dbd
000000a0: 92c7 953c a9d4 643d f0dd 50bd aad2 3c3d
000000b0: df19 763c 5ff5 efbc 2bf4 22bc 4e6a 323d
000000c0: 94e7 963d dceb 7a3d e1eb 5a3d 9e48 193e
000000d0: 732d 80bc 7d42 0b3e 2808 97bd 5513 f13d
000000e0: c1bf 80bc 92c1 4e3b 9095 7b3c f838 efbd
000000f0: 092f 13bc f707 e0ba 1f74 fa3d c7e9 8bbb
00000100: 4be9 8ebc 4f71 953d a02f 35bd 384e e8bc
00000110: 89f8 90bd 79c0 be3c 856f e33d 610b bf3d
00000120: 7920 6b3d ad76 2d3d 9b14 c9bc 6ba5 963c
00000130: e4d1 eebb 47cf 5fbc cf19 9c3d 9aaa d33d
00000140: ca0e bd3c 8a90 163d e39c 5c3d 32fd 4abc
00000150: 885d 59ba aae1 7e3b 3e1a 343e d945 cf3d
00000160: cb45 11bb d63d e4bc 5ec6 b23d a83c 023e
00000170: dbdf 963b e7dd 253d 5b3b 9b3d 6b7e 3e3e
00000180: 8815 a33c e3da 02bd 6f52 e73d 35d7 94bb
00000190: ffde 8d3d 94ad cabd 5f53 96bb 5112 68bd
000001a0: 95d7 013d da04 133c 6539 2d3d 81af cdbc
000001b0: b4a7 83bd a744 9b3d 3d71 1ebd 93e2 1f3e
000001c0: bd00 b738 b885 46bd 6af3 9bbd f324 343e
000001d0: fd3b d63d 2538 493d e05c a53c fde1 fabc
000001e0: b95e 05bc 0426 063e eab2 64bd 7162 833d
000001f0: e93d 5b3d 8247 1a3e 8d4a aa3d 7428 e93d
00000200: fa00 f1bd 0a2e 2cbd 5697 2cbd b352 c6bd
00000210: bbea 1d3e 96fd 3e3d 0a94 5dbd 570f f63c
00000220: 59a1 193e da18 ea3d 5267 ee3c b13b b9bc
00000230: 7477 c33d 32b2 df3c dd86 713d cf94 0dbe
00000240: 6255 e8bd be48 9bbd b537 c43c cbb2 e63d
00000250: 3044 aebd fcbc 7b3d 6311 59bd c02a fbbd
00000260: a8d5 3cbd 7400 3cbd e89b e5bd b742 70bd
00000270: 09c1 a2bd 2e67 083e 44d1 98bd b7b6 823d
00000280: 7648 a93d d008 99bd e280 e03d 1fe5 5c3d
00000290: fb94 d6bd 4f9f 073e 0c1b 50bd 14c1 d9bd
000002a0: 211d 793d 0958 e9bd a26c e23c 390e 0abe
000002b0: 2ab7 f1bd 6073 09be 195a 1fbe 49e0 873d
000002c0: 85ca 713d 306c 1f3e 3ca6 a93d f09c a9bd
000002d0: 4711 f13d 00e9 88bd fc07 ce3d e5dd 9d3d
000002e0: f385 fbbd eb34 1e3e 67bf a7bd 9042 ec3d
000002f0: 97ab 973d 0ab0 dc3b 86cf 883d 990a a93c

gru.bias_hh_l1 f4 [192]
-0.055292606 0.003199698 -0.10607507 0.019023653 -0.014290093 0.1151767 -0.058134824 0.11051564
0.03746122 0.111278914 0.08624681 0.045974683 0.08062132 0.037011094 -0.035538867 0.046548866
0.10951244 0.01153211 0.04717329 0.07418018 -0.06783186 0.1597101 0.12967123 0.031170864
-0.007540051 0.023111708 0.0064738602 0.14514934 0.008672112 0.056775454 -0.05960692 0.07264822
0.07207669 0.032015186 0.04893887 0.017828535 -0.042276185 0.11490115 0.067335635 -0.09046717
0.021024087 -0.0055806246 -0.06019361 0.09029516 -0.01892793 0.071587026 0.098456 0.1419251
0.08023484 -0.08759012 -0.031785652 -0.010716799 -0.006486422 -0.01524147 -0.053954493 0.1173895
0.11961651 0.009405019 0.13631704 0.08593596 -0.112314336 0.034591224 0.082978085 -0.059994366
0.117054775 0.0155128045 -0.03372368 0.057969917 0.0727611 0.11068295 0.008158002 0.1049107
0.14644635 0.0843244 0.04458858 0.046586357 0.0657248 -0.02544403 0.059636693 -0.031645194
-0.010092363 -0.027536387 -0.03845533 0.02085192 0.1134541 0.047025714 0.10103821 -0.011472017
-0.047655016 0.02045171 0.1097787 -0.009242166 0.12565945 -0.0064738295 -0.046246197 -0.028592424
0.0036983008 -0.033608668 0.09614377 -0.0319972 -0.05545525 0.061676115 0.0771762 -0.0031566024
0.070664674 0.07686618 0.123006925 0.05457488 -0.09020699 -0.026751228 0.053447075 0.14457703
0.068782374 0.049751285 0.062912375 0.050381828 -0.10617942 -0.04760829 0.043069854 0.15676363
0.04643822 0.02846599 -0.054394595 0.071977355 -0.0464029 0.1272416 -0.024425706 0.20312276
0.05897376 -0.06285538 -0.00078744296 -0.048005894 -0.035058618 0.104265675 -0.06447133 -0.014283233
0.046623155 0.12477534 -0.048528865 0.09443676 -0.028486159 0.065639704 0.013882652 -0.055311717
-0.050134927 0.1588919 0.001860517 0.053980175 0.12214536 0.02303472 0.08130801 -0.1486968
0.10149803 -0.032857843 -0.12746309 -0.1533786 0.067521125 0.15384014 -0.027607096 -0.07155206
-0.035707835 0.06016919 -0.029600954 0.101232216 -0.16225196 0.047089472 -0.114846006 0.045986902
0.02434339 -0.09708884 0.055630915 -0.006247652 -0.059907995 -0.08690416 0.039484363 -0.12200757
-0.02578661 0.03996995 0.0019186584 0.050861303 0.0406897 -0.080824286 -0.02293981 0.09497237
-0.13525997 0.08089271 -0.14894864 0.099150114 -0.05223294 0.04467076 -0.011296327 0.010527409
00000000: 807a 62bd 06b2 513b e33d d9bd 7ed7 9b3c
00000010: ff20 6abc c3e1 eb3d c81e 6ebd 0656 e23d
00000020: f070 193d 33e6 e33d 2ba2 b03d f34f 3c3d
00000030: ca1c a53d f298 173d 3491 11bd 06aa 3e3d
00000040: 0f48 e03d 2df1 3c3c c838 413d c7eb 973d
00000050: 6eeb 8abd 0b8b 233e 89c8 043e 0a5a ff3c
00000060: 8812 f7bb c454 bd3c ad22 d43b 07a2 143e
00000070: 7915 0e3c 618d 683d 6326 74bd 97c8 943d
00000080: f29c 933d 5b22 033d 2074 483d 260d 923c
00000090: cb29 2dbd 4b51 eb3d 44e7 893d da46 b9bd
000000a0: b53a ac3c acdd b6bb 938d 76bd abec b83d
000000b0: bf0e 9bbc 389c 923d 4da3 c93d d054 113e
000000c0: 2a52 a43d 7362 b3bd ac31 02bd 8395 2fbc
000000d0: 0d8c d4bb 5cb7 79bc 63ff 5cbd e869 f03d
000000e0: 80f9 f43d 8217 1a3c b296 0b3e 31ff af3d
000000f0: 0f05 e6bd 87af 0d3d 6af0 a93d a7bc 75bd
00000100: 6aba ef3d 6b29 7e3c d721 0abd dd71 6d3d
00000110: c603 953d bead e23d 24a9 053c 6cdb d63d
00000120: 08f6 153e 45b2 ac3d 84a2 363d 56d1 3e3d
00000130: b99a 863d 0070 d0bc 9b45 743d 649e 01bd
00000140: 705a 25bc fd93 e1bc 5683 1dbd a5d1 aa3c
00000150: a05a e83d 099e 403d 1fed ce3d 20f5 3bbc
00000160: e831 43bd 588a a73c a8d3 e03d 746c 17bc
00000170: dfac 003e 6b22 d4bb a76c 3dbd a93a eabc
00000180: 315f 723b 3ea9 09bd 06e7 c43d 7f0f 03bd
00000190: 0b25 63bd 18a0 7c3d 8e0e 9e3d 00df 4ebb
000001a0: a4b8 903d 046c 9d3d 0eeb fb3d e989 5f3d
000001b0: 71be b8bd 6425 dbbc 52eb 5a3d 000c 143e
000001c0: c6dd 8c3d 01c8 4b3d 34d8 803d 2d5d 4e3d
000001d0: 9974 d9bd e900 43bd 046a 303d a586 203e
000001e0: 0136 3e3d 8231 e93c decc 5ebd dd68 933d
000001f0: f810 3ebd 9f4b 023e 6b18 c8bc 6aff 4f3e
00000200: 788e 713d 52ba 80bd 676c 4eba d4a1 44bd
00000210: a099 0fbd 3e89 d53d 8b09 84bd 3904 6abc
00000220: ecf7 3e3d 378a ff3d 34c6 46bd 0f68 c13d
00000230: ce5b e9bc 1c6e 863d 1074 633c 8a8e 62bd
00000240: 485a 4dbd 8fb4 223e 97dc f33a 511a 5d3d
00000250: 5927 fa3d 4fb3 bc3c d084 a63d f943 18be
00000260: 33de cf3d f295 06bd af85 02be 480f 1dbe
00000270: 8448 8a3d 4588 1d3e 4728 e2bc e389 92bd
00000280: 6142 12bd f873 763d b37d f2bc d652 cf3d
00000290: 6125 26be e4e0 403d 6234 ebbd c35c 3c3d
000002a0: ca6b c73c 84d6 c6bd 3edd 633d 1bb9 ccbb
000002b0: 1662 75bd cffa b1bd 5bba 213d 1bdf f9bd
000002c0: 713e d3bc 88b7 233d 7e7b fb3a f153 503d
000002d0: 3eaa 263d 3487 a5bd 45ec bbbc e080 c23d
000002e0: 9781 0abe 14ab a53d fe85 18be 370f cb3d
000002f0: 35f2 55bd b0f8 363d 3b14 39bc 277b 2c3c

fc.weight f4 [1, 64]
-0.1240899 -0.046620786 0.09865241 -0.012268212 0.08362738 0.11955798 0.06191151 0.09588871
0.13701719 0.05909948 -0.074660055 0.045975547 0.05161539 0.12244403 0.038944874 0.06742697
-0.10204771 -0.0026613756 -0.108651064 -0.009814257 0.09677729 0.1067157 0.05812906 -0.008670742
0.02787879 0.07769842 -0.03298703 -0.13964464 -0.07569696 0.10796284 0.0015063046 -0.09399122
0.12057987 0.10778267 0.08620456 0.02936836 -0.108605176 0.04622224 -0.10099595 -0.014789739
-0.018610511 -0.02960481 -0.089653134 -0.1212007 -0.08306273 -0.119558945 -0.11727988 -0.11528394
-0.0571063 0.097557776 0.12950566 0.10148104 0.031069782 -0.04413242 0.016055543 0.07258527
-0.010252891 0.11822361 -0.09889149 -0.0054074116 -0.07642167 0.09497984 -0.09978588 -0.09979611
00000000: d822 febd 70f5 3ebd 460a ca3d 9c00 49bc
00000010: d544 ab3d d0da f43d ec96 7d3d 4d61 c43d
00000020: 3c4e 0c3e 4c12 723d 5fe7 98bd db50 3c3d
00000030: a96a 533d f0c3 fa3d a984 1f3d 2717 8a3d
00000040: 64fe d0bd 796a 2ebb 7384 debd facb 20bc
00000050: 2c33 c63d c38d da3d bd18 6e3d ba0f 0ebc
00000060: 0f62 e43c 5920 9f3d 681d 07bd 01ff 0ebe
00000070: 0207 9bbd 9f1b dd3d 326f c53a 787e c0bd
00000080: 94f2 f63d 29bd dc3d 048c b03d ea95 f03c
00000090: 646c debd 8853 3d3d f7d6 cebd a950 72bc
000000a0: 1275 98bc c985 f2bc 109c b7bd 1338 f8bd
000000b0: cb1c aabd 52db f4bd 6f30 f0bd fd19 ecbd
000000c0: 4ce8 69bd 5fcc c73d 229d 043e 4bd5 cf3d
000000d0: 0e86 fe3c 32c4 34bd ea86 833c 96a7 943d
000000e0: befb 27bc 381f f23d 9f87 cabd a830 b1bb
000000f0: f782 9cbd ca84 c23d 8a5c ccbd e761 ccbd
