trading/checkpoints/best_PriceRNN.pt (torch, 178943 bytes, 27 tensors)

rnn.weight_ih_l0 f4 [64, 20]
0	0xbc5e84ac	-0.013581436
1	0xbd968c59	-0.07350988
2	0x3d27cf61	0.040969256
3	0x3c671407	0.014103896
4	0x3d345683	0.044027817
5	0x3b657481	0.0035012069
6	0xbd3b7644	-0.045767084
7	0x3e160fa7	0.14654408
8	0x3c050486	0.008118754
9	0x3dc2b6c8	0.09507519
10	0xbdb733c2	-0.08945419
11	0x3c5d5c18	0.013510726
12	0x3d9a55e6	0.07535915
13	0x3db96765	0.09052924
14	0x3dccd018	0.10000628
15	0xbdc21ece	-0.09478532
16	0x3d4b2e78	0.049604863
17	0xbd791ed5	-0.06082042
18	0xbccc9d03	-0.024977213
19	0xbcb74279	-0.022370564
20	0xbc281d3b	-0.010260875
21	0xba1c4df5	-0.0005962544
22	0x3c960c1f	0.018316327
23	0x3d21570d	0.03938966
24	0x3d48c2ce	0.049013905
25	0x3c6608f2	0.014040219
26	0xbdad6d27	-0.08468085
27	0x3e19734b	0.14985387
28	0x3db7147e	0.089394554
29	0x3d1350b8	0.03596565
30	0xbce91511	-0.028452428
31	0x3d896781	0.06709195
32	0x3d3c70cc	0.04600601
33	0x3cd374fc	0.025812618
34	0xbc9ea9a9	-0.01936801
35	0x3ad46727	0.0016205058
36	0xbbbfeb26	-0.0058568893
37	0x3dbd788f	0.0925151
38	0xbd59b626	-0.053152226
39	0xbb63ebb5	-0.0034777944
40	0x3c14a7c4	0.009073202
41	0x3bcc0082	0.0062256465
42	0xbc9fcb3c	-0.01950609
43	0x3ca19f37	0.01972924
44	0x3d976af0	0.073934436
45	0xbcff373e	-0.031154271
46	0xbb8528db	-0.0040637082
47	0x3cf5f5d8	0.030024454
48	0x3df8a593	0.12140956
49	0x3d6e5ad6	0.058192097
50	0xbb025372	-0.0019886163
51	0x3d98c1c8	0.07458836
52	0xbd762f4b	-0.060103696
53	0xbbbae2ad	-0.0057032914
54	0xbdddd083	-0.10830786
55	0x3d6af76c	0.057364866
56	0xbda2a8f1	-0.07942379
57	0x3cb07f02	0.021544937
58	0x3d6285c1	0.05530334
59	0xbd818bb3	-0.06325474
60	0x3daee019	0.08538837
61	0xbd737dab	-0.05944602
62	0xbd7d6791	-0.061866347
63	0x3c537965	0.012907361
64	0x3c2cf263	0.010555836
65	0x3d80804c	0.06274471
66	0xbe0183f0	-0.12647986
67	0xbdbe9c3a	-0.093071416
68	0xbdbe43a3	-0.092902444
69	0x3d34346d	0.04399531
70	0xbd4e0e0f	-0.050306376
71	0x3b9a70d9	0.0047131595
72	0xbd5256fd	-0.05135249
73	0x3c6280f9	0.013824695
74	0x3d2b755d	0.041859973
75	0x3d89e026	0.06732206
76	0xbd3d2528	-0.046178013
77	0xbcf18ca5	-0.02948601
78	0x3d14eab5	0.036356647
79	0xbcd061c1	-0.025437238
80	0xbd9227b1	-0.07136477
81	0xbc81bbb6	-0.015836578
82	0xbd77f901	-0.060540203
83	0x3ddc6fe6	0.107635304
84	0x3bc97125	0.006147521
85	0xbd6ee9bf	-0.058328386
86	0xbc417fc8	-0.011810251
87	0xbcd03500	-0.025415897
88	0x3d475c44	0.048671976
89	0xbdce9851	-0.10087646
90	0xbc894624	-0.016757078
91	0x3d0e4140	0.034730196
92	0xbd7a51ce	-0.06111317
93	0x3cb9cf75	0.022681931
94	0xbd3efe10	-0.04662901
95	0x3cfa17af	0.030528871
96	0x3cdbbbaa	0.026822884
97	0xbc58dda4	-0.013236437
98	0x3ddc8ab1	0.10768641
99	0xbc6198f0	-0.013769373
100	0xbc71c200	-0.014755726
101	0x3d3f90d7	0.04676899
102	0xbd9df8d3	-0.07713475
103	0x3d81d8bd	0.06340168
104	0x3cdd98ed	0.02705046
105	0xbcf07a8c	-0.02935531
106	0x3c04259f	0.00806561
107	0xbd78ac30	-0.060711086
108	0x3dab08b2	0.08351268
109	0x3c1ca57b	0.009560938
110	0xbce0467e	-0.027377363
111	0x3b361dea	0.0027788826
112	0xbddd9a4d	-0.10820446
113	0xbd9efbf2	-0.077628985
114	0xbd492937	-0.04911157
115	0x3de28b0e	0.11061679
116	0x3b57b496	0.0032914034
117	0x3cdf514a	0.027260441
118	0x3df2d195	0.11856381
119	0x3ca1677d	0.019702667
120	0xbd5a046c	-0.053226873
121	0x3dc2e8a8	0.09517032
122	0x3d2b7e88	0.041868716
123	0xbcdc90e0	-0.02692455
124	0xbd2f3ff8	-0.042785615
125	0xbd179d32	-0.037015148
126	0xbc2144f1	-0.009843097
127	0x3d9c1e15	0.07622925
128	0xbe13da7e	-0.14438817
129	0x3c052184	0.0081256665
130	0xbc9e9af7	-0.019361002
131	0x3dc1f00f	0.09469616
132	0xbbdc46c5	-0.0067223036
133	0xbd681062	-0.05665625
134	0x3dcd0b7a	0.100119546
135	0xbd2fb783	-0.04289962
136	0x3c8c8b1d	0.017156178
137	0xbd369498	-0.044575304
138	0x3dc247ae	0.09486328
139	0x3d909231	0.07059134
140	0xbb63b3d5	-0.003474464
141	0xbd31aba0	-0.043376565
142	0x3c4fa221	0.012672932
143	0xbc9aaba2	-0.018880669
144	0xbce351dc	-0.027748995
145	0xbd6cce9d	-0.05781423
146	0x3cee0695	0.029055873
147	0x3d61dcfb	0.055142384
148	0xbe298ace	-0.16556856
149	0xbda8dcc9	-0.082452364
150	0xbdb4d99e	-0.0883057
151	0x3d6fa523	0.058507096
152	0x3d5963c2	0.053073652
153	0xbc2fdd82	-0.010733964
154	0x3d888646	0.066662356
155	0x3cb39c00	0.021924973
156	0x3b7f1c7f	0.0038926897
157	0x3da11d48	0.07866913
158	0x3c75c85b	0.015001382
159	0xbd6de886	-0.05808308
160	0x3ca7dcd1	0.020491036
161	0x3b0b3118	0.002123898
162	0x3d674e7a	0.056471325
163	0xbcc09171	-0.023506852
164	0x3c557875	0.0130292075
165	0xbc58e80e	-0.01323892
166	0x3ccb51db	0.024819305
167	0x3e1188c8	0.14212334
168	0x3dff2cc4	0.1245971
169	0xbda88916	-0.08229272
170	0xbd8941f8	-0.06702036
171	0xbdb4a81e	-0.08821128
172	0x3cf91d7f	0.030409573
173	0xbd0de1cb	-0.03463916
174	0x3dc63946	0.09678893
175	0x3bea0002	0.007141114
176	0x3db3cbdc	0.087791175
177	0x3da84ca6	0.082177445
178	0x3d53b9d1	0.05169088
179	0x3ce2377e	0.027614351
180	0x3b99da1d	0.0046951906
181	0x3db08d34	0.08620682
182	0x3d86e456	0.065865204
183	0x3c388a93	0.011263507
184	0xbc9be933	-0.019032096
185	0xbd64ecc4	-0.05588986
186	0xbb234eb9	-0.0024918749
187	0xbd5bf6ef	-0.05370229
188	0xbda728c4	-0.08162072
189	0xbba49d2f	-0.0050236206
190	0xbd3c227d	-0.045931328
191	0x3cdb9798	0.026805684
192	0x3d52ef03	0.05149747
193	0x3c303f27	0.010757244
194	0xbd1129f4	-0.0354404
195	0xbdbc0143	-0.09179928
196	0xbd99e8d1	-0.07515109
197	0x3c83d8c0	0.016094565
198	0x3d199dd1	0.03750402
199	0xbdcd4fea	-0.10025008
200	0xbb1d5888	-0.0024009068
201	0x3d117230	0.03550929
202	0xbc161485	-0.009160166
203	0xbc31c2f4	-0.010849703
204	0x3d3c89aa	0.046029724
205	0xbd552625	-0.05203833
206	0xbcf9ea90	-0.030507356
207	0xbdf6ecdd	-0.12056897
208	0xbdf61f03	-0.12017634
209	0xbd982d12	-0.074304715
210	0xbda247c3	-0.07923844
211	0xbd1b2324	-0.03787531
212	0x3da21aad	0.07915244
213	0x3d2cbd41	0.042172674
214	0x3ddfa4bc	0.109200925
215	0xbd1fe08a	-0.039032497
216	0x3dab04c5	0.08350519
217	0xbd88b5b4	-0.06675282
218	0xbccf9dc0	-0.025343776
219	0x3d5fdafd	0.054652203
220	0x3c4ea03b	0.012611444
221	0x3cf095c0	0.029368281
222	0xbd56e82c	-0.05246751
223	0xbd8749e6	-0.06605892
224	0x3c875e56	0.016524475
225	0xbd1ef317	-0.038806047
226	0xbd7436b2	-0.059622474
227	0xbdff08cc	-0.1245285
228	0xbdbc403a	-0.09191938
229	0xbd374e80	-0.044752598
230	0x3cb0ec13	0.021596944
231	0x3d3e8412	0.04651267
232	0xbdc5345b	-0.09629127
233	0xbd40603d	-0.04696678
234	0x3da70bab	0.08156522
235	0x3d18e360	0.037326217
236	0x3d3f0d54	0.04664357
237	0xbbd7a255	-0.006580631
238	0xbcff981b	-0.03120046
239	0xbda71eb7	-0.08160155
240	0x3d41c44f	0.047306355
241	0x3d4fb03c	0.05070518
242	0x3c7a365e	0.015271751
243	0x3cc83b85	0.024442444
244	0x3c755521	0.01497391
245	0x3ba62617	0.0050704586
246	0xbe015a0b	-0.12632005
247	0xbd37a9e4	-0.044839755
248	0xbd4a086f	-0.04932445
249	0xbd9c02b7	-0.07617705
250	0xbb1a324f	-0.0023528521
251	0xbd56a570	-0.052403867
252	0xbd6cb9ff	-0.057794567
253	0xbd9dcdea	-0.077052906
254	0x3d76179e	0.060081117
255	0xbc64baf1	-0.013960586

rnn.weight_hh_l0 f4 [64, 64]
0	0xbd95a493	-0.07306781
1	0xbc8c0a0b	-0.017094633
2	0xbd3fa2f8	-0.04678628
3	0xbd95baa8	-0.073109925
4	0x3d4f5cd2	0.05062563
5	0x3e0ba30d	0.13636418
6	0x3d66e23d	0.0563681
7	0x3d702365	0.058627505
8	0x3d2df163	0.042466532
9	0xbd1fb93c	-0.038995013
10	0xbdf917ae	-0.1216272
11	0xbd41c642	-0.047308214
12	0x3cf2359f	0.029566584
13	0xbcc6828c	-0.024232171
14	0x3d4b5d3e	0.04964947
15	0xbc82583a	-0.01591121
16	0x3b430a5b	0.002976081
17	0xbd904ff8	-0.07046503
18	0xbd80e410	-0.062934995
19	0xbd3d9640	-0.046285868
20	0xbd9d88db	-0.07692119
21	0x3b434fb3	0.0029802143
22	0x3daf9044	0.08572438
23	0x3d803a83	0.0626116
24	0xbc2605d0	-0.010133222
25	0x3b05fee4	0.0020446116
26	0xbd4c8315	-0.049929697
27	0x3e053bb0	0.1301105
28	0xbd147e34	-0.03625317
29	0x3d28ccd2	0.041210957
30	0xbd8c4855	-0.06849734
31	0x3d393880	0.0452199
32	0x3dce74c9	0.10080869
33	0x3d7ca2f5	0.061678845
34	0xbd935bb3	-0.071952246
35	0x3d6495de	0.055806987
36	0x3c9cacc4	0.01912535
37	0x3dd99b50	0.10625327
38	0xbde5d0ac	-0.112214416
39	0xbda1c61a	-0.07899113
40	0xbdc15edf	-0.09441923
41	0xbdb4fde5	-0.08837489
42	0xbdf4481e	-0.11927818
43	0x3d8f6f0a	0.07003601
44	0xbd9cb134	-0.07650986
45	0x3dbc02e5	0.091802396
46	0xbcbcfbea	-0.02306934
47	0x3c090ab7	0.008364371
48	0xbd072887	-0.032997634
49	0x3dae85b9	0.08521599
50	0x3d3658a2	0.04451812
51	0xbd9ca466	-0.07648544
52	0x3d4fbbb3	0.050716113
53	0xbd6c8afd	-0.057749737
54	0xbc8589e1	-0.016301097
55	0xbd66e6b4	-0.05637236
56	0x3ca67857	0.020321054
57	0x3cea8e6c	0.028632365
58	0xbc22d6c1	-0.009938897
59	0xbd3ff9a7	-0.046868946
60	0x3dcf7435	0.101295866
61	0xbd9c246d	-0.07624135
62	0xbd433efe	-0.047667496
63	0xbc539e97	-0.012916229
64	0x3a1d013d	0.0005989259
65	0x3d8ab25e	0.06772302
66	0xbdbfaf17	-0.093595676
67	0xbd9837d6	-0.07432525
68	0x3dd8aeea	0.10580237
69	0xbdaf7cae	-0.08568703
70	0xbd3c22be	-0.04593157
71	0x3c613436	0.013745358
72	0xbd956cc8	-0.07296139
73	0xbd16b89b	-0.036797147
74	0x3c3bf4e9	0.011471965
75	0x3db2052a	0.08692391
76	0x3db0ba95	0.08629338
77	0x3db9804f	0.09057676
78	0xbc0e0e2b	-0.00867037
79	0xbdc92c65	-0.09822921
80	0xbdb3f782	-0.08787443
81	0x3d2498c4	0.04018475
82	0x3c97120c	0.018441223
83	0xbdef0cb1	-0.116723426
84	0x3ad394b4	0.001614234
85	0x3d98312c	0.07431254
86	0x3d451c06	0.04812243
87	0x3d215d35	0.03939553
88	0xbd43cd8a	-0.04780344
89	0xbddc29b7	-0.10750144
90	0x3da3c4db	0.079965316
91	0xbdd35f6d	-0.103209354
92	0x3d710712	0.058844633
93	0xbd6562ca	-0.056002416
94	0x3c191993	0.009344476
95	0x3d5de07e	0.05416917
96	0xbda6d29a	-0.08145638
97	0xbdcecaee	-0.100972995
98	0xbdd78aae	-0.10524498
99	0x3de9ab18	0.11409587
100	0x3c701456	0.014653286
101	0x3da8b3cf	0.08237421
102	0xbd1eaefd	-0.0387411
103	0x3de9a342	0.11408092
104	0xbdfe8c1c	-0.124290675
105	0xbc83fdd5	-0.016112247
106	0xbe05b391	-0.1305678
107	0xbdf5e467	-0.12006455
108	0xbd8221ec	-0.06354126
109	0xbbf1b867	-0.007376719
110	0x3dc3b8ec	0.095567554
111	0x3daf6532	0.08564223
112	0x3cc0c195	0.023529807
113	0x3bfd004d	0.007720983
114	0xbda8003d	-0.082031704
115	0xbc5f27bb	-0.013620312
116	0x3da25137	0.07925647
117	0xbd5f18fc	-0.054467186
118	0x3da132ab	0.07870992
119	0x3cebe689	0.028796451
120	0xbdf4d6c9	-0.119550295
121	0x3d77f6ba	0.06053803
122	0xbd228a0c	-0.039682433
123	0xbcdaf379	-0.026727425
124	0x3d916700	0.07099724
125	0xbdf587ea	-0.11988814
126	0x3dd9cef1	0.10635174
127	0xbdd7c059	-0.10534734
128	0xbbd322e4	-0.0064433683
129	0xbda0d3f4	-0.07852927
130	0x3d6cc3b1	0.057803813
131	0xbd5e3465	-0.054249186
132	0xbce6c303	-0.02816916
133	0xbc9f6d68	-0.019461349
134	0x3d897241	0.06711245
135	0xbd9f0321	-0.07764269
136	0x3d84c2ea	0.064824894
137	0xbdd6845d	-0.10474465
138	0x3d9cf590	0.07664025
139	0xbd8a48c6	-0.06752162
140	0xbe0bc313	-0.13648634
141	0x3ca4d1d5	0.020119587
142	0x3c0d13b0	0.008610651
143	0x3d10371e	0.035208814
144	0x3d339704	0.04384519
145	0x3dc116ec	0.094282
146	0xbc961e34	-0.018324949
147	0xbda71aa2	-0.08159377
148	0xbdb80b44	-0.08986524
149	0x3da18a1c	0.078876704
150	0xbd0621ad	-0.03274696
151	0x3d101b52	0.035182305
152	0x3dd78489	0.10523326
153	0x3d5dd4a8	0.054157883
154	0xbd4fde7d	-0.05074929
155	0xbd5aa0df	-0.053376075
156	0xbc4c40f9	-0.012466663
157	0x3c97f01a	0.018547107
158	0x3da5af69	0.080900975
159	0x3c5da260	0.013527483
160	0x3d84bb69	0.06481058
161	0xbcbb9e96	-0.022902768
162	0xbd93a491	-0.07209123
163	0x3c2d888d	0.010591638
164	0x3d87b3c2	0.06626083
165	0xbdb43e3d	-0.088009335
166	0xbd3d117c	-0.046159253
167	0xbd1e293a	-0.038613535
168	0x3cf9ec83	0.030508285
169	0xbc889c8c	-0.01667621
170	0x3c8414fc	0.016123287
171	0xbd76719b	-0.060166936
172	0x3c898a51	0.016789587
173	0xbdd6856c	-0.10474667
174	0xbd257d55	-0.04040273
175	0xbd971236	-0.0737652
176	0xbd2ca12f	-0.042145904
177	0xbb44d247	-0.0030032562
178	0xbda97047	-0.08273368
179	0xbdb500f9	-0.08838076
180	0xbc46eb8f	-0.0121411225
181	0x3dcc3fe4	0.09973124
182	0x3d939d33	0.07207718
183	0x3c9554f1	0.01822898
184	0x3ded2b32	0.115805045
185	0xbda29203	-0.07938006
186	0x3d9ec257	0.07751911
187	0x3cb368bc	0.021900527
188	0x3b5a562c	0.0033315523
189	0xbd7c15f1	-0.061544362
190	0x3dd0be8c	0.10192594
191	0x3d0c8ce4	0.03431405
192	0xbd141a3f	-0.036157843
193	0xbca535e3	-0.020167297
194	0xbe026d98	-0.12737119
195	0xbde7a9f8	-0.11311716
196	0xbdb8dbfe	-0.09026335
197	0x3d05ad16	0.03263577
198	0xbd3cfeb0	-0.046141326
199	0xbdce6ddf	-0.1007955
200	0xbda07489	-0.07834727
201	0x3dd41892	0.10356249
202	0xbdcc6e9a	-0.09982033
203	0x3de33eaf	0.1109594
204	0xbd7e7c6a	-0.06213037
205	0xbc448d2c	-0.011996549
206	0xbdf50f84	-0.1196585
207	0xbd17532f	-0.036944564
208	0xbdbbb177	-0.09164708
209	0x3b941371	0.004518919
210	0xbd5a8df2	-0.053358026
211	0x3d401ad9	0.046900604
212	0x3a9c31ea	0.0011916731
213	0xbc8a388c	-0.016872667
214	0x3d4cde34	0.050016597
215	0x3cd78421	0.026308121
216	0x3c7e8544	0.015534703
217	0x3de32c72	0.11092462
218	0x3dc5facc	0.09666976
219	0x3de134c9	0.10996396
220	0x3c8ca752	0.017169628
221	0xbd910398	-0.070807636
222	0xbd3054b1	-0.043049518
223	0x3a04ddfd	0.0005068479
224	0x3dc8b155	0.097994484
225	0xbd2f20e1	-0.042755965
226	0xbdea4b00	-0.11440086
227	0x3d580a83	0.0527444
228	0xbd7fc494	-0.06244333
229	0xbd979b1f	-0.07402634
230	0xbd74ae1a	-0.05973635
231	0x3da3148c	0.079629034
232	0xbd84b0a9	-0.06479008
233	0x3d3842dd	0.04498564
234	0x3d891c2e	0.06694828
235	0x3da72179	0.08160681
236	0x3d6296f2	0.055319734
237	0x3d523f15	0.05132969
238	0xbd3ded3d	-0.046368826
239	0xbd0bd7ea	-0.03414146
240	0xbde543ed	-0.111945964
241	0x3da42c96	0.080163166
242	0x3db99022	0.09060694
243	0x3d0ac6e3	0.03388108
244	0x3bd7c0f8	0.006584283
245	0xbd02a296	-0.031893335
246	0xbde59ae1	-0.112111814
247	0x3ce3f8e7	0.027828647
248	0xbad5390e	-0.0016267614
249	0x3c887150	0.016655594
250	0x3c7baf52	0.015361624
251	0x3dc08608	0.094005644
252	0xbd054d78	-0.032544583
253	0xbdea7402	-0.11447908
254	0x3b5139ba	0.0031925277
255	0xbda55d92	-0.08074488

rnn.bias_ih_l0 f4 [64]
0	0xbdce7dbb	-0.10082575
1	0x3c816f12	0.015800033
2	0x3aff66b9	0.001948557
3	0x3c090d9f	0.008365064
4	0xbc3d0bc3	-0.011538449
5	0xbc9d94d7	-0.019236011
6	0xbd92255c	-0.07136032
7	0xbc1b6ea5	-0.009486829
8	0xbd158b4d	-0.0365098
9	0xbd33666a	-0.04379884
10	0x3cbfc9ef	0.02341172
11	0x3cc5540c	0.024087928
12	0x3d1ecbf2	0.038768716
13	0xbd3c4468	-0.045963675
14	0x3ba72914	0.0051013324
15	0x3db76815	0.08955399
16	0xbd2aae38	-0.041670054
17	0xbd511e89	-0.05105451
18	0x3d3a8f71	0.045546953
19	0x3bdcd420	0.0067391545
20	0x3d17c6d6	0.03705486
21	0xbdaa664f	-0.08320295
22	0x3d2b1844	0.04177119
23	0xbe2592f8	-0.16169345
24	0xbd22adee	-0.039716654
25	0xbddc490e	-0.107561216
26	0xbd938d17	-0.07204645
27	0x3dbfbdbc	0.09362361
28	0xbdd81804	-0.105514556
29	0xbcc87bf6	-0.024473172
30	0x3daa1d30	0.08306348
31	0x3e023d92	0.127188
32	0x3dacf296	0.08444707
33	0xbdba4648	-0.09095436
34	0xbd5b773c	-0.053580508
35	0xbd899716	-0.067182705
36	0x3d4368c0	0.04770732
37	0x3da32808	0.0796662
38	0x3d9db010	0.07699597
39	0x3bc21bcf	0.005923725
40	0xbd9044f2	-0.070444
41	0xbd27748c	-0.040882632
42	0xbcb7efcf	-0.022453217
43	0xbc35676f	-0.011072024
44	0xbb1fff84	-0.0024413774
45	0xbe02f313	-0.12788038
46	0xbdbaaa84	-0.091145545
47	0xbd0c38bd	-0.034233797
48	0xbd9903bb	-0.07471415
49	0xbcc57b83	-0.024106747
50	0xbc81690e	-0.015797164
51	0xbd5e986d	-0.054344583
52	0x3c522363	0.01282582
53	0xbd5f6fc8	-0.054549962
54	0xbe4a20d7	-0.1973909
55	0xbcbfa334	-0.023393251
56	0xbdd2891c	-0.10280058
57	0x3d70176a	0.05861608
58	0xbc5e0a89	-0.013552316
59	0x3db5e41f	0.08881401
60	0xbd37edc6	-0.044904493
61	0x3d3859b2	0.045007415
62	0xbdaa08ca	-0.08302458
63	0xbdf5aba8	-0.119956315

rnn.bias_hh_l0 f4 [64]
0	0xbe08db2b	-0.13364856
1	0x3dc7d88d	0.09758101
2	0x3d91f3c6	0.07126574
3	0xbdbec469	-0.09314806
4	0xbd491870	-0.04909557
5	0xbe0e9031	-0.13922192
6	0xbbdb29dc	-0.0066883396
7	0x3ddef1a9	0.10885937
8	0xbd7f8974	-0.062386945
9	0xbdd5819b	-0.10425111
10	0x3d0aebfd	0.033916462
11	0x3dac05f7	0.08399575
12	0xbdc02d09	-0.0938359
13	0x3d0b1a8d	0.033960868
14	0x3b8d86c1	0.0043190424
15	0x3e07e39a	0.13270417
16	0xbc5dbc96	-0.013533732
17	0x3d98adaa	0.07454999
18	0xbd715838	-0.058922023
19	0xbdc44026	-0.09582548
20	0xbc9add65	-0.018904397
21	0xbdee0de4	-0.11623743
22	0x3d6fe6a6	0.058569573
23	0xbdc4825b	-0.09595176
24	0x3daf06eb	0.085462414
25	0xbcc75e11	-0.024336847
26	0x3d53f263	0.05174483
27	0x3debba61	0.11510158
28	0xbdffe62c	-0.12495074
29	0xbd7107f3	-0.05884547
30	0x3d862a17	0.06550997
31	0x3dfcc4e2	0.1234224
32	0xbdf964cd	-0.12177429
33	0xbd8ba741	-0.068190105
34	0xbe0bf902	-0.13669208
35	0x3cdb8a25	0.02679927
36	0xbaac4c10	-0.0013145227
37	0xbdc21672	-0.09476937
38	0xbc93b627	-0.018031193
39	0x3dd1872b	0.10230859
40	0x3db9a65a	0.09064932
41	0x389b0590	7.392012e-05
42	0xbdb5ba9c	-0.088734835
43	0xbba07f9f	-0.004898026
44	0xbdb556fe	-0.08854483
45	0xbc96874b	-0.01837506
46	0xbd333d33	-0.043759536
47	0x3dd5659a	0.104197696
48	0xbcd932da	-0.026513506
49	0x3decf349	0.115698405
50	0x3bf8c7f6	0.0075921966
51	0xbd56f0a6	-0.052475594
52	0xbde2f5c7	-0.110820346
53	0x3d10207a	0.035187222
54	0xbd167731	-0.036734764
55	0x3da7e1b8	0.08197349
56	0xbddd1f99	-0.107970424
57	0x3dc32224	0.09527996
58	0xbd6782c8	-0.056521207
59	0x3d1f7bb8	0.038936347
60	0xbdc6e8a2	-0.0971234
61	0x3d874833	0.06605568
62	0xbddecab4	-0.10878506
63	0x3da8c4e1	0.08240677

rnn.weight_ih_l1 f4 [64, 64]
0	0xbdc2b715	-0.095075764
1	0x3ca293da	0.019845892
2	0x3dd73556	0.1050822
3	0xbc87ebb3	-0.016591882
4	0x3de64178	0.11242956
5	0xbdc2f54d	-0.09519444
6	0x3ce82008	0.028335586
7	0xbd79473b	-0.060858946
8	0xbddc6651	-0.10761703
9	0x3c3dc119	0.011581683
10	0x3de29bab	0.110648476
11	0x3da1a836	0.07893412
12	0xbda5d31f	-0.08096909
13	0xbceeebe1	-0.02916521
14	0xbdc29c0d	-0.095024206
15	0xbd7b4203	-0.06134225
16	0xbcd5606a	-0.02604695
17	0xbc2dc746	-0.0106065925
18	0xbcac1569	-0.021006303
19	0xbd91ce3d	-0.07119415
20	0x3cbd53df	0.023111282
21	0x3d6c6158	0.05771002
22	0xbddd59bf	-0.10808133
23	0x3c81a406	0.015825283
24	0x3d255ffd	0.040374745
25	0x3d9b94d6	0.075967476
26	0x3d31e0b9	0.043427203
27	0x3c2fdae6	0.010733342
28	0x3de5be64	0.11217955
29	0xbda1e0cf	-0.07904207
30	0x3d46dbaf	0.04854935
31	0xbd8b2dfd	-0.06795881
32	0x3c96ed4f	0.018423704
33	0x3d41e366	0.047336005
34	0x3da6a758	0.08137387
35	0xbddf44b6	-0.109017774
36	0xbdd2265a	-0.10261221
37	0x3c1e8380	0.009674907
38	0x3cebcf58	0.028785393
39	0xbdd5bd23	-0.104364656
40	0x3d342c04	0.04398729
41	0x3d87fb77	0.0663976
42	0xbd95e956	-0.07319896
43	0xbd9e2427	-0.07721739
44	0xbdcb31ed	-0.09921632
45	0xbd34b758	-0.044120163
46	0xbcb93635	-0.022608856
47	0xbd76801a	-0.06018076
48	0xbc2a9c6d	-0.010413271
49	0xbdc43c55	-0.0958182
50	0x3d9c8ae8	0.07643682
51	0x3dd99154	0.10623422
52	0xbde1abd2	-0.110191
53	0x3d955d6a	0.07293208
54	0xbda9a770	-0.08283889
55	0x3d8a097f	0.067400925
56	0x3dcdbf02	0.100461975
57	0xbcad207b	-0.021133652
58	0x3dca93b0	0.098914504
59	0xbdb9e910	-0.09077656
60	0x3d820dba	0.063502744
61	0xbdb78957	-0.08961742
62	0x3da3c488	0.0799647
63	0x3dd31ac3	0.10307839
64	0xbd205734	-0.039145663
65	0xbdb7a084	-0.08966163
66	0x3c08cabc	0.008349117
67	0xbd401846	-0.04689815
68	0x3dc29cd5	0.095025696
69	0x3da802bc	0.082036465
70	0xbbd0474b	-0.006356155
71	0xbd26a9e3	-0.04068936
72	0xbd87ce63	-0.06631162
73	0xbc957261	-0.018243017
74	0xbd992485	-0.07477669
75	0x3d722f27	0.059127
76	0xbbeb34f9	-0.0071779457
77	0x3c0c8238	0.008575968
78	0x3c366459	0.011132323
79	0x3d74262a	0.05960671
80	0x3de762ac	0.11298117
81	0xbdbe1e66	-0.09283142
82	0x3ad4e8a8	0.0016243653
83	0xbcf022b4	-0.029313423
84	0xbcea5c3b	-0.028608432
85	0x3dd80ada	0.10548945
86	0xbc168e73	-0.009189236
87	0x3df9f892	0.12205614
88	0x3dcb16c2	0.0991645
89	0xbd0eb363	-0.034839045
90	0xbda69e97	-0.08135717
91	0xbc12b3cd	-0.008954001
92	0x3d9eebf6	0.0775985
93	0xbbc71aa1	-0.0060761725
94	0x3cb8b3d9	0.022546696
95	0x3ccf4553	0.025301611
96	0x3b72ed32	0.003706765
97	0x3dff5ebb	0.1246924
98	0xbd3766b9	-0.0447757
99	0x3db6f624	0.08933666
100	0xbc3e335e	-0.011608927
101	0x3deec47a	0.11658569
102	0xbd7937a5	-0.060844082
103	0xbd905aec	-0.07048592
104	0x3a9803fe	0.001159787
105	0x3ddda7e4	0.10823038
106	0xbdcab718	-0.098982036
107	0x3d804570	0.06263244
108	0x3d61f5aa	0.055165924
109	0x3def3d43	0.116816066
110	0x3d962eb2	0.07333125
111	0xbde8d77a	-0.11369224
112	0x3d2689e7	0.040658858
113	0x3ce0e791	0.02745417
114	0x3d7e171d	0.06203376
115	0x3dd5bfbb	0.1043696
116	0x3c82cc1f	0.015966473
117	0x3d332367	0.043734934
118	0x3cc13c68	0.023588374
119	0x3cf2b4b2	0.029627178
120	0x3ca5e0bd	0.020248765
121	0xbde14d71	-0.11001099
122	0x3da6a40e	0.0813676
123	0xbda454a6	-0.08023958
124	0x3d421c76	0.047390424
125	0x3da1819f	0.078860514
126	0x3df06045	0.11737112
127	0x3d6fad4f	0.05851489
128	0x3ca18e10	0.019721061
129	0x3dcba10b	0.09942826
130	0xbd82293f	-0.06355523
131	0x3ac3a88c	0.001492755
132	0xbcc51fa9	-0.024062948
133	0x3d424776	0.04743143
134	0x3d595f95	0.05306967
135	0x3d69abc6	0.05704858
136	0x3d88277d	0.06648157
137	0xbe0323c9	-0.1280662
138	0xbcba8360	-0.022767723
139	0x3d81719a	0.06320496
140	0x3db64cf8	0.089013994
141	0x3df08f7b	0.11746117
142	0xbde7f179	-0.11325354
143	0x3ce2d7ee	0.027690854
144	0xbdd9ac16	-0.10628526
145	0xbd25f8eb	-0.04052059
146	0x3a82942e	0.0009962374
147	0x3d517da4	0.05114521
148	0x3dc9a0d4	0.09845129
149	0x3d83e637	0.06440394
150	0xbd50126b	-0.050798815
151	0x3d447ded	0.047971655
152	0xbdc012c0	-0.09378576
153	0xbdd7c085	-0.10534767
154	0x3d3b3ffb	0.045715313
155	0xbcacfe9a	-0.021117497
156	0xbdcad94b	-0.099047266
157	0x3d36bd09	0.04461387
158	0xbd6f7a01	-0.05846596
159	0xbd8fd98b	-0.07023915
160	0xbde9ad27	-0.11409979
161	0x3dc0fa38	0.094227254
162	0xbde1a6e9	-0.11018164
163	0x3d8dffa7	0.069335274
164	0x3d3d0a56	0.046152435
165	0xbd9c6872	-0.07637109
166	0x3dd116c4	0.1020942
167	0x3d7f5d3d	0.06234478
168	0xbdc4d50c	-0.09610948
169	0xbd75d5b6	-0.060018264
170	0x3cb5e063	0.022201722
171	0xbd72c738	-0.05927202
172	0x3c1e24c9	0.009652325
173	0xbd3c08de	-0.045906894
174	0x3cdd4bce	0.027013686
175	0xbdd17813	-0.102279805
176	0x3bcd751a	0.006270063
177	0x3d7b28c6	0.06131818
178	0xbd0878d3	-0.033318352
179	0xbd95d172	-0.07315339
180	0x3d81d231	0.06338919
181	0xbbbcec26	-0.005765456
182	0x3db12384	0.08649352
183	0x3b5da242	0.0033818637
184	0xbdfd97f0	-0.123824954
185	0xbcc8ff81	-0.024535896
186	0x3dc4a38d	0.09601507
187	0xbd670fa2	-0.056411393
188	0x3baf4bc1	0.0053496067
189	0x3dd5ab07	0.104330115
190	0xbc90c389	-0.017671363
191	0xbd43a48c	-0.047764346
192	0x3dbb1545	0.09134916
193	0xbce97e23	-0.02850253
194	0x3d099e2c	0.03359811
195	0xbd655e1d	-0.055997957
196	0x3de1945c	0.110146254
197	0xbdd41cb7	-0.103570394
198	0xbc23df0c	-0.010001909
199	0xbdb8be7f	-0.09020709
200	0x3d9e59bf	0.077319615
201	0xbcc0fb63	-0.02355737
202	0x3ddc1cdf	0.10747694
203	0xbd7103d1	-0.05884153
204	0x3db824e9	0.08991415
205	0xbd785d22	-0.060635693
206	0xbd4aa95c	-0.04947792
207	0x3cc0f0ae	0.023552265
208	0xbd564a70	-0.052317083
209	0xbc932058	-0.017959759
210	0x3d8bcc90	0.068261266
211	0x3d94dd84	0.07268813
212	0x3db4c97c	0.088274926
213	0x3b8997af	0.0041989903
214	0x3cf34130	0.02969417
215	0x3dc939de	0.098254904
216	0x3d7f6269	0.06234971
217	0xbcb42f1b	-0.021995118
218	0x3df586e3	0.11988618
219	0xbe0780f0	-0.1323278
220	0xbd6de492	-0.05807931
221	0x3d9a1d1a	0.07525082
222	0xbcb46892	-0.02202252
223	0x3dcd9bf3	0.100395106
224	0xbd1beb96	-0.03806647
225	0x3bfd5761	0.0077313636
226	0xbdcec135	-0.10095445
227	0xbd994753	-0.07484307
228	0xbd2c054a	-0.04199723
229	0xbdba33f0	-0.090919375
230	0x3d908543	0.07056668
231	0xbdba59a6	-0.0909913
232	0xbd3f1c45	-0.04665782
233	0x3d5bc730	0.053656757
234	0xbdec3a30	-0.11534536
235	0xbd9d2035	-0.07672159
236	0xbd780cb2	-0.060558982
237	0x3c16f329	0.009213247
238	0x3d1fad15	0.038983423
239	0xbd9be264	-0.0761154
240	0xbd96a918	-0.07356471
241	0x3d25b83e	0.04045891
242	0x3dfd6310	0.1237241
243	0x3d983397	0.07431715
244	0x3d878170	0.06616485
245	0x3dc9078b	0.09815892
246	0x3dd8340a	0.10556801
247	0xbc206f76	-0.009792199
248	0x3d0c662a	0.03427712
249	0xbd12f726	-0.03588023
250	0xbda46cb8	-0.08028549
251	0xbdf4e8d6	-0.119584724
252	0x3d94059b	0.07227632
253	0xbdb5d104	-0.08877757
254	0x3bbd3a84	0.005774798
255	0xbdb64cf0	-0.089013934

rnn.weight_hh_l1 f4 [64, 64]
0	0x3b992e4b	0.004674708
1	0xbdbdbf26	-0.09264974
2	0xbdb612c6	-0.088902995
3	0x3d432b52	0.047648735
4	0x3d04eafb	0.032450657
5	0x3dbdc6fa	0.092664674
6	0xbc204222	-0.009781392
7	0x3c6943c4	0.014237348
8	0xbd03975c	-0.03212677
9	0xbd0610b2	-0.032730766
10	0xbd8de7f8	-0.0692901
11	0xbdc71551	-0.09720863
12	0x3d9f5d3d	0.07781456
13	0xbd243f48	-0.040099412
14	0xbdaa32ca	-0.083104685
15	0xbd09dfda	-0.033660747
16	0x3c0947fe	0.008378981
17	0x3dc8e17e	0.09808634
18	0x39d893c8	0.00041308836
19	0x3dcc66c2	0.09980537
20	0xbd9c8985	-0.07643417
21	0xbce6eb31	-0.02818832
22	0xbcfa3ce5	-0.030546615
23	0xbddc96c6	-0.10770945
24	0xbe15fd34	-0.1464737
25	0xbd350705	-0.044196147
26	0x3d925261	0.07144619
27	0x3dca242a	0.09870179
28	0xbdc0ad31	-0.09408034
29	0xbd897236	-0.06711237
30	0xbd2d0def	-0.042249616
31	0x3d6ddc7f	0.05807161
32	0x3df24a51	0.11830581
33	0xbda64dd0	-0.0812031
34	0xbdc5b9f6	-0.0965461
35	0xbde58dc9	-0.11208684
36	0xbdbd88c5	-0.09254602
37	0xbc357a26	-0.011076486
38	0x3dbb427a	0.09143539
39	0xbe0495b4	-0.12947732
40	0x3d34a034	0.044098094
41	0xbca3926b	-0.019967278
42	0xba9df570	-0.0012051295
43	0x3c8a769d	0.016902262
44	0xbcad9427	-0.021188809
45	0xbc6a886a	-0.01431475
46	0xbd0f28f7	-0.034951176
47	0x3e06ade9	0.13152279
48	0xbdaee147	-0.08539062
49	0x3c643e30	0.013930842
50	0xbd84e903	-0.06489756
51	0xbd02cdff	-0.031934734
52	0xbe1ac00c	-0.15112323
53	0x3dd0e716	0.10200326
54	0x3d85b80b	0.06529244
55	0x3d64c9d3	0.055856537
56	0x3da0fe05	0.078609504
57	0xbba6d364	-0.0050911177
58	0x3dc718cf	0.09721529
59	0xbdfea6d1	-0.124341615
60	0xbc8add1d	-0.016951138
61	0xbb4133a5	-0.0029480245
62	0x3d1f1e8a	0.038847484
63	0xbdd841f5	-0.10559455
64	0xbc5cfb65	-0.0134876715
65	0xbcd67c5c	-0.026182346
66	0xbd44aa06	-0.04801371
67	0x3c87aa8d	0.016560817
68	0x3d2e9a84	0.042627826
69	0xbdb85689	-0.0900088
70	0xbbe5231f	-0.006992712
71	0x3dcb7536	0.099344656
72	0xbd8164c6	-0.06318049
73	0x3b011cdb	0.0019701037
74	0x3d95a4d3	0.07306828
75	0x3d594a9c	0.05304967
76	0x3d9a9755	0.075483955
77	0x3cbff3d3	0.023431694
78	0x3df98a6a	0.121846035
79	0x3dfffee8	0.124997914
80	0xbd62fa0a	-0.055414237
81	0x3d2b72c5	0.0418575
82	0x3e0ec7c2	0.13943389
83	0xbcb7dae3	-0.02244324
84	0xbe094e56	-0.13408789
85	0xbd5a76df	-0.05333602
86	0x3d95949f	0.07303738
87	0x3d7ae0dc	0.0612496
88	0xbd53b85c	-0.05168949
89	0x3e0cea83	0.13761334
90	0x3d5ba2de	0.05362212
91	0xbd93744f	-0.071999185
92	0x3d4a8070	0.049438894
93	0x3d05f44e	0.03270369
94	0x3c19bfef	0.009384139
95	0x3d22f3f0	0.03978342
96	0xbce124a6	-0.027483296
97	0xbd67e71b	-0.056616884
98	0xbc141c89	-0.009040006
99	0x3dfab2fd	0.122411706
100	0xbc45f16a	-0.012081483
101	0xbdf8801f	-0.12133812
102	0xbd2c1725	-0.04201426
103	0xbc91c3cd	-0.01779356
104	0x3d11f7cf	0.03563672
105	0x3d1314b5	0.03590842
106	0xbdfb575a	-0.1227252
107	0x3d3e08a2	0.04639495
108	0x3d42b4dd	0.047535766
109	0x3e06c8e4	0.13162571
110	0x3de9ed98	0.114222705
111	0x3d8565a3	0.06513526
112	0x3dd47187	0.10373216
113	0xbd8f3ae5	-0.06993655
114	0x3d433c4e	0.047664933
115	0x3d78630a	0.060641326
116	0xbd88eab4	-0.06685391
117	0xbd8ddfdb	-0.06927463
118	0x3cc1cd23	0.023657387
119	0x3dfe9435	0.12430612
120	0xbd870050	-0.065918565
121	0x3df462d1	0.1193291
122	0xbcd83c3b	-0.026395908
123	0xbdce320e	-0.10068141
124	0x3def2581	0.11677075
125	0x3d11e08d	0.03561454
126	0xbd960237	-0.07324641
127	0xbce95ea2	-0.028487507
128	0xbdb628fe	-0.088945374
129	0xbe0ec28d	-0.13941403
130	0x3da03083	0.07821753
131	0x3c9a066b	0.018801888
132	0xbcb721b6	-0.022354942
133	0xbb0bd312	-0.0021335525
134	0xbd821e8f	-0.06353485
135	0x3ccdc52e	0.025118437
136	0x3db3cd20	0.08779359
137	0xbc13114e	-0.008976294
138	0x3ddd7cc3	0.10814812
139	0xbca07907	-0.01958896
140	0xbddefd45	-0.10888151
141	0x3d09996f	0.03359359
142	0xbca72e3b	-0.020407787
143	0xbe1949c3	-0.14969544
144	0xbdce9e70	-0.10088813
145	0xbc8d656e	-0.01726028
146	0xbda1694e	-0.078814134
147	0x3cf9e74d	0.0305058
148	0x3cfb6f0f	0.030692605
149	0xbc685705	-0.014180903
150	0xbde8757c	-0.11350533
151	0x3c8e4faa	0.017371971
152	0x3e139b0b	0.14414613
153	0xbe1c566e	-0.15267345
154	0x3b4a7e88	0.0030898172
155	0x3d34b9c1	0.04412246
156	0x3ba7296c	0.0051013734
157	0xbd8809c6	-0.06642489
158	0xbdb6acbc	-0.08919665
159	0xbd9f3cce	-0.077752694
160	0xbe05a5f4	-0.13051587
161	0xbda3384b	-0.079697214
162	0x3c2d7fe8	0.010589577
163	0xbdf6baeb	-0.120473705
164	0xbdc82000	-0.097717285
165	0x3e0cba43	0.13742928
166	0x3dd06cdf	0.101770155
167	0xbd1c2e44	-0.03813006
168	0x3c809429	0.015695648
169	0xbca9cba6	-0.02072699
170	0x3ddf2dbc	0.10897395
171	0xbd059a16	-0.03261765
172	0xbda16c4d	-0.07881985
173	0xbdc97dd9	-0.09838457
174	0xbd4e9511	-0.05043513
175	0xbdd1d56b	-0.10245784
176	0xbc430f34	-0.01190548
177	0x3d52ccb9	0.05146477
178	0x3db35d83	0.0875807
179	0x3d83d25d	0.06436608
180	0x3c31a551	0.010842637
181	0xbcd72bd7	-0.026266022
182	0xbd87bad1	-0.06627429
183	0x3d1f6ad7	0.03892025
184	0x3e03554f	0.12825511
185	0xbbf6d47c	-0.0075326543
186	0x3cbc4ab2	0.022984836
187	0xbdc208f6	-0.094743654
188	0x3cdb4b4a	0.026769299
189	0x3d5a40f9	0.05328462
190	0xbcf79a25	-0.030224869
191	0x39fa0416	0.0004768676
192	0xbcb31a2c	-0.021863066
193	0xbd96dc05	-0.07366184
194	0xbc85af43	-0.016318923
195	0xbc52a5a5	-0.012856876
196	0x3d1e27af	0.038612064
197	0x3d6a9bb9	0.057277415
198	0x3c5e29f2	0.013559805
199	0x3da4eb4f	0.08052694
200	0xbd472e86	-0.048628353
201	0xbdee4517	-0.116342716
202	0xbd9adde2	-0.07561852
203	0x3cfd0036	0.03088389
204	0x3e073923	0.1320539
205	0x3dd4048d	0.103524305
206	0x3ceaf9a2	0.028683487
207	0x3dd5fd2a	0.10448678
208	0x3dcaf08a	0.099091604
209	0x3d979fc0	0.07403517
210	0x3d490f8b	0.04908709
211	0x3dd5594f	0.10417425
212	0xbcf3d489	-0.02976443
213	0x3dc0f163	0.09421041
214	0x3d246c62	0.040142424
215	0xbd55533b	-0.052081328
216	0xbd8e1e8b	-0.06939419
217	0xbdb082a5	-0.086186685
218	0x3df38bb3	0.1189188
219	0xbdbf15f9	-0.09330363
220	0x3d899b8e	0.06719123
221	0xbe107a21	-0.14109088
222	0x3cbb61b0	0.02287373
223	0xbe12bd9b	-0.14330141
224	0x3dd596f0	0.1042918
225	0xbe03cc65	-0.12870939
226	0xbb2965e2	-0.002584808
227	0x3d9fa4e8	0.07795125
228	0x3bf3c3b6	0.007439102
229	0xbcc8ab7d	-0.024495834
230	0xbd0eb6fd	-0.03484248
231	0x3d629bbd	0.055324305
232	0x3d4b2abe	0.04960131
233	0xbd039425	-0.032123704
234	0xbdc528a3	-0.096268915
235	0xbd23cf7e	-0.0399928
236	0x3d83fbf1	0.064445384
237	0x3dca0400	0.09864044
238	0xbd8fe71b	-0.07026502
239	0x3ddf62e3	0.10907533
240	0x3de78b69	0.11305887
241	0x3be14ca2	0.0068755904
242	0x3cd5ef35	0.02611504
243	0x3db16e76	0.08663647
244	0x398b4ddc	0.00026570156
245	0x3d242c62	0.04008139
246	0xbcbce960	-0.0230605
247	0x3d6f7bc9	0.05846766
248	0xbda1b3f4	-0.078956515
249	0xbd748eea	-0.059706606
250	0x3dae9130	0.08523786
251	0xbdefc54b	-0.117075525
252	0x3cc29451	0.023752363
253	0x3db96771	0.09052933
254	0x3d7d470c	0.061835334
255	0xbd84cabc	-0.06483981

rnn.bias_ih_l1 f4 [64]
0	0xbd271b4f	-0.040797528
1	0xbd42de42	-0.047575243
2	0x3b70314e	0.0036650482
3	0x3d5a4b0f	0.053294238
4	0x3c305cbc	0.010764297
5	0x3d067576	0.032826863
6	0xbe0b556c	-0.13606805
7	0x3d44d22e	0.048052005
8	0x3cfc1488	0.030771509
9	0x3c21061e	0.009828119
10	0x3dd144b2	0.10218181
11	0xb910a90c	-0.00013795885
12	0xbb60ecfe	-0.0034320946
13	0xbde250a4	-0.11050537
14	0xbdc304e2	-0.09522416
15	0xbdc39a0b	-0.09550866
16	0xbcee2ee5	-0.029075095
17	0xbc151c98	-0.009101056
18	0xbb44a29d	-0.0030004152
19	0xbd7ce8a3	-0.061745297
20	0x3d92857e	0.07154368
21	0x3d730391	0.059329573
22	0x3d9a363f	0.07529878
23	0x3e081761	0.13290168
24	0x3d485c1b	0.048915964
25	0xbdf417e4	-0.11918619
26	0xbdce682c	-0.10078463
27	0xbbe3358a	-0.0069338726
28	0xbdb81537	-0.089884214
29	0xbc1cd11c	-0.00957134
30	0xbb8361b3	-0.0040094494
31	0x3acbaef0	0.0015539806
32	0xbe00d977	-0.12582956
33	0xbd5e9510	-0.054341376
34	0x3d0c2be2	0.034221537
35	0xbdc70b85	-0.09718994
36	0xbd0ae158	-0.03390631
37	0x3d95cd56	0.07314555
38	0xbca7f173	-0.020500874
39	0xbd43c373	-0.047793817
40	0x3d3f6073	0.04672284
41	0xbc222a08	-0.009897716
42	0x3ddea85c	0.10871956
43	0xbd2105ed	-0.039312292
44	0xbd7390aa	-0.059464134
45	0x3c886ea6	0.016654324
46	0x3db58c3d	0.08864639
47	0xbd81b5a3	-0.063334726
48	0x3dadc43a	0.08484693
49	0xbd51bd0d	-0.051205683
50	0xbd848da4	-0.06472328
51	0xbc104f98	-0.008808039
52	0x3e0ee89d	0.13955922
53	0xbd1903e9	-0.037357245
54	0xbd68a8b6	-0.05680152
55	0x3d3f49dc	0.046701297
56	0xbd9fea5d	-0.07808373
57	0x3da7ef7e	0.081999764
58	0xbbba994c	-0.005694544
59	0x3d129a23	0.035791527
60	0xbdd59f54	-0.1043078
61	0x3da80e22	0.082058206
62	0x3e12d27e	0.14338109
63	0x3d685657	0.056722965

rnn.bias_hh_l1 f4 [64]
0	0x3b1bc2fa	0.0023767338
1	0xbdd977c9	-0.1061855
2	0x3e0ed7e8	0.13949549
3	0xbe186e84	-0.14885908
4	0x3d21e329	0.039523277
5	0x3d3fdddd	0.046842445
6	0xbd82a238	-0.06378597
7	0x3d102ee4	0.03520097
8	0x3dccdc43	0.10002949
9	0xbdca50be	-0.098786816
10	0xbdde660d	-0.108593084
11	0x3cf2ae2c	0.029624067
12	0xbe19d982	-0.15024379
13	0xbd83ff54	-0.06445184
14	0xbe199372	-0.14997652
15	0xbbf72cd2	-0.007543185
16	0x3db47a5e	0.08812402
17	0x3db6281e	0.088943705
18	0xbc51dd68	-0.012809135
19	0xbd88bb08	-0.066762984
20	0x3e03aecf	0.12859653
21	0xbd0a3479	-0.033741448
22	0x3c313d55	0.010817845
23	0x3c58b094	0.013225693
24	0x3df7e834	0.12104836
25	0xbdcca98e	-0.099932775
26	0xbdbc6aaa	-0.09200032
27	0xbdcf2534	-0.10114518
28	0x3db1ff90	0.08691323
29	0x3de60ce1	0.11232925
30	0xbc998064	-0.01873798
31	0x3e0c21e9	0.1368481
32	0xbd6a3ba6	-0.05718579
33	0x3e0f3f38	0.1398896
34	0xbdeff546	-0.11716704
35	0xbde1e038	-0.110290945
36	0xbd83fbb0	-0.0644449
37	0x3cea6466	0.028612327
38	0xbd9beba0	-0.07613301
39	0x3c59d4a9	0.013295331
40	0xbe14b408	-0.14521801
41	0xbdd7b426	-0.105324075
42	0x3dde78de	0.10862897
43	0xbd46d4e2	-0.048542865
44	0x3cb57ebc	0.022155158
45	0x3d3e779c	0.046500787
46	0xbdb785b6	-0.0896105
47	0xbd734fab	-0.05940215
48	0x3b6945bc	0.0035594543
49	0x3dc9e2c3	0.098577045
50	0x3d2d4821	0.042305116
51	0xbe11ad17	-0.14226185
52	0x3de471e5	0.11154536
53	0xbdc4fb31	-0.096182235
54	0xbd181def	-0.037137922
55	0x3d8e3ca7	0.06945162
56	0x3d9b14de	0.075723395
57	0xbd7b3e16	-0.061338507
58	0xbdbf10e4	-0.093293935
59	0x3d933033	0.07186928
60	0x3dbc2cbb	0.09188219
61	0xbc131815	-0.00897791
62	0x3cfbd5ae	0.030741539
63	0xbdb13fe3	-0.086547635

fc.weight f4 [1, 64]
0	0xbdefa96a	-0.11702235
1	0xbd116f0e	-0.0355063
2	0x3da809c0	0.08204985
3	0xbddcb3cb	-0.1077648
4	0xbdedda7d	-0.11613939
5	0xbddff8ed	-0.10936151
6	0xbd25a006	-0.040435813
7	0xbd4bbd9f	-0.049741384
8	0x3d4e1a2f	0.05031794
9	0xbcc15b6a	-0.02360316
10	0xbb2d8495	-0.002647673
11	0x3d71a51a	0.058995344
12	0xbd984630	-0.07435262
13	0xbd454655	-0.048162777
14	0xbd30e000	-0.043182373
15	0xbdcedd82	-0.10100843
16	0xbd76aefe	-0.06022548
17	0xbda972d2	-0.08273853
18	0xbde7ae43	-0.11312535
19	0xbcca1677	-0.024668915
20	0xbd7063f5	-0.058689076
21	0x3df7a9a2	0.12092902
22	0xbce2dda5	-0.027693579
23	0x3df6ce77	0.12051099
24	0x3d6fd942	0.058556803
25	0xbd166cf4	-0.036725
26	0xbad5b025	-0.0016303106
27	0xbda92ea0	-0.08260846
28	0x3c5dc63f	0.013536035
29	0x3dd8dd5f	0.10589098
30	0x3da4ed75	0.08053104
31	0x3d01b9ca	0.031671323
32	0xbdd81b31	-0.10552061
33	0xbcca8a5c	-0.024724178
34	0xbd957959	-0.07298536
35	0x3ba89769	0.0051450026
36	0x3d2f3855	0.04277833
37	0x3d41164b	0.0471404
38	0x3d089580	0.0333457
39	0x3d67f56b	0.056630533
40	0xbcff60da	-0.031174112
41	0xbbc29e76	-0.0059393
42	0xbdc6b12a	-0.0970176
43	0x3c89cb21	0.016820492
44	0xbbf3fe1a	-0.0074460628
45	0x3c52e110	0.012871042
46	0x3ca72d57	0.020407362
47	0xbe07cb32	-0.13261107
48	0xbd83e52e	-0.06440197
49	0xbd61fdb1	-0.05517358
50	0xbc96aa09	-0.018391626
51	0xbd15b807	-0.036552455
52	0x3df0a2f5	0.117498316
53	0x3db40d46	0.08791594
54	0xbd861b5f	-0.06548189
55	0x3c156f9c	0.009120848
56	0x3d2c4e9a	0.042067148
57	0xbca49ed4	-0.020095266
58	0xbd973207	-0.07382589
59	0x3db258ea	0.08708365
60	0xbd4b38c6	-0.04961469
61	0x3d800df4	0.06252661
62	0x3d8059b4	0.062671095
63	0x3db51ab1	0.088429816

exp_avg f4 [64, 20]
0	0xb8c2eff6	-9.295337e-05
1	0x3935b594	0.00017329148
2	0x39373e4f	0.00017475452
3	0x36b9230f	5.517511e-06
4	0xb8e5d48a	-0.000109591594
5	0xb956238a	-0.0002042187
6	0xb9268e32	-0.00015883966
7	0xb7ee187b	-2.838321e-05
8	0xb7c663b7	-2.3649873e-05
9	0xb7978193	-1.806094e-05
10	0xb7ff8e58	-3.0464653e-05
11	0xb9bd8c60	-0.00036153477
12	0xb96b703d	-0.00022453158
13	0xb8ad71c1	-8.270471e-05
14	0xb9ca4101	-0.00038576874
15	0x39ddff13	0.0004234245
16	0x39866c8f	0.00025639354
17	0xb962ee68	-0.00021641853
18	0xb9a5452a	-0.00031522784
19	0xb81daad6	-3.759082e-05
20	0xb84ceda6	-4.8858717e-05
21	0xb81350a1	-3.5122623e-05
22	0xb904735f	-0.0001263148
23	0x38e83e80	0.000110742636
24	0xb7bd413a	-2.256093e-05
25	0xb8fb23cd	-0.00011975281
26	0xb95ba9cb	-0.0002094872
27	0xb85823b0	-5.153165e-05
28	0xb82ec128	-4.1664724e-05
29	0xb8215594	-3.8465092e-05
30	0xb8e74747	-0.00011028215
31	0xb897fb97	-7.247103e-05
32	0x37bb5c2f	2.2335063e-05
33	0xb8d42aa2	-0.00010116889
34	0xb8b5f8f8	-8.6771266e-05
35	0x390bc817	0.00013330612
36	0x38d15790	9.9822064e-05
37	0x38542f94	5.058905e-05
38	0xb889e851	-6.5759414e-05
39	0xb8ae269b	-8.3041574e-05
40	0xb7bc38dc	-2.2437824e-05
41	0xb82a7119	-4.063649e-05
42	0xb861ee8b	-5.386634e-05
43	0x3789ae9a	1.6412978e-05
44	0x37204f46	9.5552e-06
45	0xb891af7a	-6.946824e-05
46	0xb8e31c94	-0.000108295266
47	0x37d9386f	2.5894695e-05
48	0x38084a8d	3.2494358e-05
49	0x380f2a4f	3.413326e-05
50	0xb868cc88	-5.5503595e-05
51	0xb8d0dc58	-9.959255e-05
52	0x3831d4de	4.2398337e-05
53	0xb82f9b79	-4.1868047e-05
54	0xb8bb516e	-8.932022e-05
55	0x38e3f13e	0.00010869138
56	0x38b10ce2	8.442417e-05
57	0x37340625	1.0730267e-05
58	0xb754a0ea	-1.267365e-05
59	0xb87fa8c6	-6.095392e-05
60	0x382903bd	4.029622e-05
61	0xb8156f0d	-3.5627792e-05
62	0x381f9230	3.80447e-05
63	0xb8ab7ffa	-8.177753e-05
64	0x373a6cef	1.1111827e-05
65	0x38cd760d	9.7971504e-05
66	0x38f107f5	0.000114932576
67	0x383e7ff4	4.5418696e-05
68	0x38260890	3.958546e-05
69	0x3822ab50	3.8783357e-05
70	0x388bda3d	6.6686865e-05
71	0x3908e2ec	0.00013054506
72	0x36ac80cf	5.1409947e-06
73	0x38104cec	3.4403914e-05
74	0x38a23260	7.734145e-05
75	0xb8e4abfc	-0.00010903922
76	0xb8cc00de	-9.7276396e-05
77	0x37f774fd	2.9499171e-05
78	0x38b4df91	8.624711e-05
79	0x3783a301	1.5692322e-05
80	0x36d81b3c	6.440472e-06
81	0x3806447c	3.201187e-05
82	0x37f61e6a	2.9339648e-05
83	0x3568507f	8.654387e-07
84	0xb7a73684	-1.9933337e-05
85	0x370186b1	7.7203595e-06
86	0xb70a1916	-8.231282e-06
87	0xb7e97a47	-2.7832704e-05
88	0xb7e21b2a	-2.6953949e-05
89	0xb7ea6a33	-2.7944427e-05
90	0x38771c2b	5.8915623e-05
91	0x3840e579	4.599008e-05
92	0x384ac07e	4.8339825e-05
93	0xb68ecd76	-4.2558486e-06
94	0x381ac17f	3.689667e-05
95	0xb82ff1e6	-4.1948537e-05
96	0xb7aa2578	-2.0283027e-05
97	0xb7b1fa81	-2.1216694e-05
98	0x383680e4	4.351222e-05
99	0xb7cf5cb3	-2.471949e-05
100	0xb86bcb94	-5.6217963e-05
101	0x38c64cda	9.4556905e-05
102	0x39015bfc	0.00012336666
103	0xb808a439	-3.257787e-05
104	0xb5a31f9c	-1.2153646e-06
105	0xb834d3ed	-4.3112716e-05
106	0x380598b0	3.1851872e-05
107	0xb798a0e1	-1.8194727e-05
108	0xb79daeea	-1.879731e-05
109	0xb79e4e31	-1.8871478e-05
110	0x37d0870f	2.4858424e-05
111	0xb90b4a56	-0.00013283765
112	0xb941516e	-0.00018436249
113	0x37d1e822	2.5022837e-05
114	0xb93b0641	-0.0001783604
115	0x390cf238	0.00013441674
116	0x38b34ac3	8.5493106e-05
117	0xb9014fe6	-0.00012332163
118	0xb8e38d38	-0.000108505075
119	0x37bf64df	2.2815946e-05
120	0xb745f9dd	-1.1800291e-05
121	0x374afb2e	1.2098621e-05
122	0x38a8595a	8.027507e-05
123	0xb8ab34cb	-8.163749e-05
124	0x37aa7df4	2.032423e-05
125	0x388204fd	6.199812e-05
126	0x38e28983	0.00010802133
127	0x378af96d	1.656703e-05
128	0x37238b20	9.74795e-06
129	0x3720501d	9.555396e-06
130	0x374e1388	1.2283104e-05
131	0x37372939	1.0917248e-05
132	0xb89e788e	-7.556482e-05
133	0x38117b0e	3.4685298e-05
134	0xb73e2758	-1.1334043e-05
135	0xb7dca253	-2.6301632e-05
136	0xb789fdf5	-1.644993e-05
137	0xb83facbd	-4.5698824e-05
138	0x3519b944	5.726654e-07
139	0x380f43d9	3.4157045e-05
140	0x38905176	6.881628e-05
141	0xb8838eab	-6.273141e-05
142	0xb7bbf745	-2.2407281e-05
143	0xb839cd4a	-4.4298627e-05
144	0xb71a2209	-9.18704e-06
145	0x38df4b79	0.000106475265
146	0x3916b8ac	0.0001437391
147	0x380113bc	3.0774376e-05
148	0x37ba800d	2.2232556e-05
149	0x37a6cbb3	1.9883597e-05
150	0x3833656b	4.277138e-05
151	0x39026510	0.00012435415
152	0x37ef3625	2.8516233e-05
153	0x379e9a43	1.8906901e-05
154	0x39258492	0.00015785013
155	0xb940c177	-0.00018382618
156	0xb8ec9608	-0.000112813024
157	0x38d5db80	0.000101975165
158	0x38b9db8e	8.862383e-05
159	0x388086de	6.1286366e-05
160	0xb8514e27	-4.9902268e-05
161	0x38753092	5.8457787e-05
162	0x37f4449a	2.9119012e-05
163	0x38123585	3.4858956e-05
164	0xb8082665	-3.2460684e-05
165	0xb87bba62	-6.0016646e-05
166	0xb836b0fe	-4.355702e-05
167	0x3734f575	1.0785986e-05
168	0x376d91ab	1.4160217e-05
169	0x375c8bb8	1.3145553e-05
170	0x3705821a	7.957709e-06
171	0xb8d9204e	-0.000103533835
172	0xb50c5f20	-5.229249e-07
173	0xb72120a9	-9.603952e-06
174	0xb8c3ff44	-9.3458715e-05
175	0x38a9f59c	8.104296e-05
176	0x3890fb51	6.9132664e-05
177	0xb88ff2a0	-6.863964e-05
178	0xb856cca5	-5.1212166e-05
179	0xb6ea2043	-6.977499e-06
180	0x37b41413	2.146702e-05
181	0x38598ee5	5.1869913e-05
182	0x38ef32c7	0.00011405866
183	0xb89efb5b	-7.580846e-05
184	0x3793ece3	1.7634075e-05
185	0x38ce4766	9.8361445e-05
186	0x39210cb8	0.00015358895
187	0x36fc7816	7.524165e-06
188	0x35bd8040	1.4118923e-06
189	0xb53fdacc	-7.1471436e-07
190	0x382141bc	3.844661e-05
191	0x380125e2	3.0791278e-05
192	0xb89d29fd	-7.494164e-05
193	0x38b34c89	8.549641e-05
194	0x37babed3	2.2261787e-05
195	0xb7879034	-1.6160404e-05
196	0xb8a779df	-7.985881e-05
197	0xb895f9a5	-7.1513736e-05
198	0xb77af2ed	-1.4957722e-05
199	0x3704c436	7.913497e-06
200	0x38850ae9	6.3439664e-05
201	0xb90ae22c	-0.00013244961
202	0xb8f73cf6	-0.00011789233
203	0xb81a29fb	-3.675556e-05
204	0x38f9e35f	0.000119155964
205	0x3983cca4	0.00025138736
206	0x396a0cd1	0.00022320753
207	0x38186886	3.633697e-05
208	0x37e9eb77	2.7885411e-05
209	0x37c0112a	2.2896176e-05
210	0x3795c871	1.7855522e-05
211	0x39a57199	0.0003155589
212	0x392c8351	0.00016452117
213	0x37ded38b	2.656297e-05
214	0x39be29f4	0.00036270882
215	0xb9a259cb	-0.0003096595
216	0xb997e461	-0.0002897112
217	0x393df6d5	0.00018116397
218	0x394255c4	0.00018533232
219	0x37fbde06	3.002492e-05
220	0x37868db6	1.6040034e-05
221	0xb8eb6d4c	-0.00011226031
222	0xb88d3250	-6.7327754e-05
223	0xb8699caf	-5.5697452e-05
224	0x36f07d4b	7.1671434e-06
225	0x38fbe917	0.00012012029
226	0x392713fe	0.00015933809
227	0x387348f7	5.800367e-05
228	0x38574255	5.132177e-05
229	0x38459a18	4.711197e-05
230	0xb69df09e	-4.706976e-06
231	0x3917a8e5	0.000144634
232	0xb78cf3c7	-1.6802818e-05
233	0x383e53c7	4.5377554e-05
234	0x396bd428	0.00022490381
235	0xb97ac950	-0.00023916853
236	0xb9381ece	-0.00017559083
237	0x3921fc8e	0.0001544824
238	0x3922cec0	0.00015526544
239	0x38188138	3.635997e-05
240	0x38837ea5	6.270156e-05
241	0xb801b94a	-3.092856e-05
242	0xb6c62036	-5.9046097e-06
243	0xb80605f5	-3.1953638e-05
244	0x378e593d	1.6969274e-05
245	0x384705df	4.7450765e-05
246	0x3812a674	3.4964134e-05
247	0xb6f87eaa	-7.4057216e-06
248	0xb722e3bb	-9.708975e-06
249	0xb72ed7d7	-1.0421462e-05
250	0x3839e6cf	4.4322394e-05
251	0x386da98d	5.666311e-05
252	0x385c80a6	5.25719e-05
253	0x37cb6da1	2.4250536e-05
254	0x3866ccdc	5.5027063e-05
255	0xb88fb1df	-6.8519024e-05
