trading/checkpoints/best_PriceLSTM.pt (torch, 676653 bytes, 27 tensors)

lstm.weight_ih_l0 f4 [256, 20]
0	0xbda11d6c	-0.0786694
1	0xbd4cf83f	-0.050041433
2	0xbe093ef5	-0.13402922
3	0xbd0508f1	-0.03247923
4	0x3da3cb98	0.07997817
5	0xbcfdd867	-0.030986978
6	0xbd08da8c	-0.033411548
7	0x3db6f57e	0.08933543
8	0x3c733d9e	0.014846234
9	0x3df5d64b	0.12003764
10	0x3d53cc1a	0.05170832
11	0xbdfe82a4	-0.124272615
12	0xbd7afe84	-0.06127788
13	0x3e09f2a8	0.13471472
14	0xbdc5a27f	-0.09650134
15	0xbdd684cc	-0.10474548
16	0xbc82c22f	-0.015961735
17	0x3d9681ae	0.07348953
18	0xbdbf7fb5	-0.0935053
19	0x3e0eb3b9	0.13935746
20	0x3db3f7e3	0.08787515
21	0x3b916d4d	0.0044380785
22	0xbde205c3	-0.11036255
23	0xbd09a029	-0.033600006
24	0x3ceee912	0.029163871
25	0xbd8216e4	-0.06352022
26	0xbc9137e4	-0.017726846
27	0x3df1fd68	0.118159115
28	0x3db80a8d	0.089863874
29	0x3dfbd354	0.12296167
30	0x3d4e1294	0.050310686
31	0xbd160366	-0.036624335
32	0x3dfdd016	0.12393205
33	0xbda21f3a	-0.07916112
34	0xbc36ad99	-0.011149787
35	0x3d8cbfc2	0.068725124
36	0xbdea910e	-0.11453448
37	0x3db52e60	0.08846736
38	0x3dd9e340	0.106390476
39	0xbc7ac9e7	-0.015306926
40	0xbdf72b46	-0.12068801
41	0x3df19844	0.117966205
42	0x3de2f25b	0.11081382
43	0x3d356713	0.044287752
44	0xbce93a24	-0.028470106
45	0x3d531a24	0.0515386
46	0xbd5e7a24	-0.0543157
47	0xbdccb96d	-0.09996305
48	0x3c9451ab	0.018105349
49	0x3dde1126	0.108431146
50	0xbc8d729a	-0.01726656
51	0x3a952908	0.0011380026
52	0x3dacd94e	0.08439885
53	0x3dcb313d	0.09921501
54	0xbdc0c006	-0.094116256
55	0x3da9546d	0.08268056
56	0xbdcbcdcf	-0.09951364
57	0xbd221334	-0.039569095
58	0x3df2d468	0.118569195
59	0xbde350b7	-0.110993795
60	0x3db3bd30	0.08776319
61	0x3c050b7a	0.008120412
62	0x3cf65428	0.030069426
63	0xbdcbc867	-0.09950333
64	0x3d949545	0.072550334
65	0x3d4ce137	0.05001947
66	0x3d0680fb	0.03283785
67	0xbd5b5aa4	-0.05355324
68	0x3d281ffc	0.041046128
69	0x3cf97597	0.030451579
70	0xbd13a4cc	-0.036045834
71	0xbdc8eca9	-0.09810764
72	0xbd91e508	-0.07123762
73	0x3d9d4695	0.07679478
74	0x3bccaadb	0.0062459535
75	0xbd56e37e	-0.052463047
76	0xbdb35c82	-0.08757879
77	0x3dd086a8	0.10181934
78	0x3c9c4461	0.019075574
79	0x3cc14247	0.023591174
80	0xbbff6f18	-0.007795226
81	0xbd43bac3	-0.04778553
82	0x3c4e6c72	0.012599098
83	0x3d5cc5ea	0.053899683
84	0x3c621b54	0.013800461
85	0xbd35d92d	-0.044396568
86	0xbda8a0f8	-0.08233827
87	0x3d2c19f1	0.042016927
88	0x3e1a5a77	0.15073572
89	0x3c2587cb	0.010103176
90	0x3db908b6	0.090348646
91	0xbb901a1f	-0.004397645
92	0xbe14384c	-0.144746
93	0x3d3e1935	0.046410758
94	0x3d97ca0c	0.07411584
95	0xbd2ab92e	-0.041680507
96	0xbd9ad778	-0.07560629
97	0xbda8f8a3	-0.08250549
98	0x3cfa35a3	0.030543154
99	0x3bc67f2d	0.006057641
100	0xbd3acf0d	-0.045607615
101	0x3d63a6f4	0.05557914
102	0xbc2aa25d	-0.010414687
103	0x3cef8daa	0.029242355
104	0xbcb336b5	-0.021876672
105	0xbd28e057	-0.041229572
106	0xbdd05f93	-0.10174479
107	0x3b747725	0.003730246
108	0x3d98a71d	0.07453749
109	0x3d31e3b1	0.043430034
110	0x3d672c26	0.056438588
111	0x3da1d2a7	0.07901507
112	0xbd4986b6	-0.049200736
113	0xbd0507e8	-0.032478243
114	0xbb8ebaca	-0.004355763
115	0x3ca12376	0.01967023
116	0x3db7d522	0.08976199
117	0xbdb45333	-0.088049315
118	0x3d380e85	0.044935722
119	0x3d9be03e	0.0761113
120	0x3d903f9a	0.07043381
121	0xbdd14dff	-0.10219955
122	0xbdcb406c	-0.09924397
123	0xbd0e171d	-0.03469001
124	0xbc99d1a3	-0.01877672
125	0xbdd33b03	-0.1031399
126	0x3d8ee603	0.06977465
127	0x3cd5ba85	0.026089916
128	0x3e0ea4a2	0.1392999
129	0x3df60871	0.12013329
130	0x3d3451ce	0.044023328
131	0x3d4deaac	0.05027263
132	0x3ceadc84	0.028669603
133	0xbddfabf2	-0.10921468
134	0x3d8f73ff	0.070045464
135	0x3db5d3d8	0.088782966
136	0xbd005e9d	-0.03134023
137	0xbdbc89ed	-0.09205995
138	0x3c425e66	0.011863327
139	0xbe0c43b0	-0.13697696
140	0xbd93bfe8	-0.072143376
141	0xbca133ee	-0.019678082
142	0xbd0b21b8	-0.033967704
143	0xbdfe9456	-0.124306366
144	0x3d657515	0.05601986
145	0xbda21efa	-0.079160646
146	0x3cd36647	0.025805606
147	0x3ddfd458	0.10929173
148	0x3da2b94b	0.07945498
149	0xbcddaf85	-0.027061233
150	0xbdae9509	-0.0852452
151	0xbb8b97cf	-0.0042600404
152	0x3be41341	0.006960303
153	0x3c429c4d	0.011878085
154	0x3c54c751	0.012986974
155	0x3db77fda	0.089599326
156	0xbd90f640	-0.070782185
157	0x3cbd47f5	0.0231056
158	0x3cc1b523	0.023645943
159	0xbd09ef2d	-0.03367536
160	0x3ce4e06e	0.027939048
161	0xbca6d934	-0.020367242
162	0xbc059ff8	-0.008155815
163	0xbcded644	-0.02720178
164	0xbb708479	-0.0036700054
165	0x3d1a7aee	0.03771489
166	0xbc148fbc	-0.009067472
167	0xbb4dd6d8	-0.0031408574
168	0x3c07797c	0.00826871
169	0x3cc1e4f3	0.023668742
170	0x3d40856a	0.047002234
171	0xbe028d6f	-0.12749265
172	0x3d96443b	0.07337233
173	0x3d843a91	0.06456483
174	0x3de8583a	0.11344953
175	0x3df28a20	0.118427515
176	0x3d99a53c	0.07502219
177	0xbda975dc	-0.08274433
178	0x3d9dde54	0.07708421
179	0xbd9b11b0	-0.07571733
180	0x3d82395f	0.06358599
181	0xbd322d4c	-0.04350023
182	0x3d1ec369	0.038760576
183	0x3d8067c8	0.06269795
184	0x3d9e7bc6	0.07738452
185	0xbb8f47bf	-0.0043725665
186	0x3dc43e27	0.09582167
187	0xbd92e2cd	-0.07172165
188	0xbc7c23dd	-0.01538941
189	0x3dc99264	0.09842375
190	0xbc98b9d9	-0.018643307
191	0x3d9d02c5	0.07666544
192	0xbd9d685e	-0.07685922
193	0xbc9e738e	-0.01934221
194	0x3d96a1ba	0.07355066
195	0x3c213acf	0.009840681
196	0xbde6a304	-0.112615615
197	0x3c89d97c	0.016827337
198	0x3d734e46	0.05940082
199	0x3d7dcf3e	0.06196522
200	0x3cd89758	0.026439354
201	0xbd681279	-0.056658242
202	0x3d699c31	0.05703372
203	0xbd332f65	-0.04374637
204	0xbd9dc8e8	-0.077043355
205	0x3c977a9c	0.018491082
206	0x3d3a6852	0.045509644
207	0x3d36e200	0.044649124
208	0x3d66b5ea	0.05632583
209	0x3d916ccd	0.0710083
210	0xbd62eedb	-0.05540357
211	0x3dd2ba57	0.10289448
212	0xbdf11547	-0.117716365
213	0xbc6d069b	-0.014466907
214	0xbd25a5a3	-0.040441167
215	0x3df9e371	0.12201584
216	0xbb48104c	-0.0030527292
217	0x3dd72393	0.10504832
218	0xbd90af93	-0.07064738
219	0x3d36c0dc	0.04461752
220	0x3d79e614	0.061010435
221	0xbda95123	-0.08267429
222	0xbc1f9fb5	-0.009742667
223	0x3d894093	0.0670177
224	0x3d7906b1	0.060797397
225	0x3dd4b617	0.103862934
226	0xbdb315cc	-0.08744392
227	0x3cfd580e	0.030925777
228	0x3c09eff2	0.008419024
229	0x3da50f7e	0.080595955
230	0x3bdfb593	0.0068270653
231	0xbb7f6255	-0.0038968523
232	0xbda1b496	-0.07895772
233	0xbcd15afc	-0.02555608
234	0xbd147ad9	-0.03624997
235	0x3d526c2b	0.05137269
236	0x3cafc6b6	0.021457057
237	0xbda60771	-0.08106888
238	0x3c809a98	0.015698716
239	0xbcfafe7c	-0.030638926
240	0xbdadfc40	-0.084953785
241	0xbd3bd44e	-0.045856766
242	0xbd318677	-0.043341126
243	0xbdd314dd	-0.10306714
244	0xbc2dbf4d	-0.010604692
245	0x3d9d83e3	0.07691171
246	0xbcd30b12	-0.025762115
247	0xbd6e6a99	-0.05820713
248	0x3d5afb21	0.05346215
249	0xbd1f975f	-0.038962718
250	0xbbab05a8	-0.00521918
251	0xbc97ab93	-0.01851443
252	0xbd0e7fc0	-0.0347898
253	0xbdc67b87	-0.0969153
254	0xbdd8ec63	-0.10591962
255	0x3bf2cec5	0.0074099028

lstm.weight_hh_l0 f4 [256, 64]
0	0xbdb13e1c	-0.086544245
1	0x3d8b9b7e	0.06816767
2	0x3bbcdb47	0.0057634446
3	0xbd17f61c	-0.037099943
4	0xbd8b00db	-0.067872725
5	0xbd7fb8b6	-0.062432013
6	0x3d053c15	0.032528
7	0xbc0c693b	-0.008570011
8	0xbdda3d83	-0.10656264
9	0x3b82d344	0.00399247
10	0xbdbce999	-0.09224243
11	0x3d5973b1	0.053088848
12	0xbd87dd2a	-0.066339806
13	0xbd7df00d	-0.06199651
14	0xbdd694dd	-0.10477612
15	0x3ae089c1	0.0017130898
16	0xb983cbed	-0.00025138204
17	0x3d0a4685	0.03375866
18	0x3db5fcf0	0.088861346
19	0x3d163e6f	0.036680635
20	0xbc3fda1c	-0.011709716
21	0xbdbcb613	-0.092144154
22	0xbc8c9b6d	-0.017163957
23	0x3d8c6a58	0.06856221
24	0xbd9ad262	-0.075596586
25	0x3bb516e1	0.005526409
26	0xbce4cea7	-0.02793057
27	0xbd9c3851	-0.07627929
28	0xbd9e6dc3	-0.07735779
29	0xbcd03472	-0.025415633
30	0x3d482eda	0.048872806
31	0xbade8cac	-0.0016979179
32	0xbd9ab2a8	-0.07553607
33	0x3c4571b5	0.012051036
34	0xbdb9edba	-0.09078546
35	0xbdd52940	-0.104082584
36	0x3dc708e6	0.09718494
37	0x3d66f25b	0.056383472
38	0xbcf8cafa	-0.030370224
39	0xbd43337e	-0.04765653
40	0xbcd90377	-0.02649091
41	0xbc087930	-0.008329675
42	0xb9cd1e6f	-0.00039123322
43	0x3b60b8db	0.003428987
44	0xbdc3fe3b	-0.09569975
45	0x3da56622	0.08076121
46	0x3d7b3ced	0.0613374
47	0x3d5aa1f9	0.053377125
48	0x3e06d632	0.13167647
49	0x3da393ec	0.07987198
50	0xbd730a1d	-0.059335817
51	0xbd163e1b	-0.036680322
52	0xbdca950f	-0.09891712
53	0x3d531318	0.05153188
54	0xbd998b34	-0.07497254
55	0xbdac241c	-0.08405325
56	0x3c84d8c0	0.016216636
57	0xbc3a0b86	-0.011355286
58	0x3d04f8bc	0.032463774
59	0x3c9f3cda	0.019438196
60	0x3d517087	0.051132705
61	0xbddec2d7	-0.108770065
62	0xbe04ba13	-0.12961607
63	0xbdf5264d	-0.11970196
64	0x3c6fd64b	0.014638494
65	0x3ca5a04b	0.020218035
66	0x3d992e4c	0.074795336
67	0x3be45a3c	0.0069687646
68	0x3d8f7ae2	0.0700586
69	0xbd80b02c	-0.06283602
70	0xbd923c0d	-0.0714036
71	0xbd7d1960	-0.061791778
72	0x3db07afe	0.08617209
73	0xbcb46e40	-0.022025228
74	0xbcec0aca	-0.028813738
75	0xbc10b3e8	-0.0088319555
76	0xbd633d59	-0.055478428
77	0x3daa0d30	0.083032966
78	0xbbd734cd	-0.0065675736
79	0x3be47c38	0.006972816
80	0x3bf94f15	0.0076083043
81	0x3d94eac7	0.07271343
82	0x3d02acce	0.03190308
83	0xbd851585	-0.06498245
84	0xbd26553a	-0.040608622
85	0x3dd8cad3	0.10585561
86	0xba9714e1	-0.0011526608
87	0xbd986530	-0.07441175
88	0xbd81f2a9	-0.06345112
89	0xbd043419	-0.032276247
90	0xbdb73126	-0.08944921
91	0x3d393d99	0.04522476
92	0x3a049bc8	0.00050586136
93	0x3d7afc9f	0.061276074
94	0xbdde3dc4	-0.108516246
95	0xbdd0c2c8	-0.101934016
96	0xbaf61105	-0.0018773383
97	0xbd9c5c23	-0.07634761
98	0x3bc6571b	0.0060528642
99	0x3de114dd	0.109903075
100	0x3d90bd28	0.07067329
101	0xbdd12508	-0.10212141
102	0x3a9b4348	0.0011845613
103	0x3da59c56	0.08086459
104	0xbdbbe86c	-0.0917519
105	0x3d35d949	0.044396672
106	0xbcb55825	-0.022136757
107	0x3cf334e9	0.029688315
108	0x3ccfc899	0.025364207
109	0xbd132add	-0.03592955
110	0x3dc0890a	0.09401138
111	0x3c0d4f88	0.008624919
112	0x3d6b2c07	0.057415035
113	0xbc3199d1	-0.010839895
114	0xbd8313da	-0.06400271
115	0x3c3c63af	0.011498376
116	0xbda733c1	-0.08164168
117	0x3d3855f6	0.045003854
118	0xbaeba87d	-0.001797929
119	0xbd2b29e1	-0.041787986
120	0xbbe14b5d	-0.006875439
121	0xbd89bbef	-0.067252986
122	0xba9daeec	-0.001203028
123	0xbdc77d73	-0.097407244
124	0xbd700f0c	-0.0586081
125	0x3d3480e1	0.04406822
126	0xbd6eb1d5	-0.058275063
127	0x3daa25e6	0.0830801
128	0x3dd7af6d	0.10531507
129	0xbdab974a	-0.083784655
130	0x3c9bd2df	0.01902145
131	0xbda81192	-0.08206476
132	0x3da71e65	0.08160094
133	0x3c870930	0.016483873
134	0x3d3d6442	0.04623819
135	0xbc7fdc5b	-0.015616502
136	0xbce06674	-0.027392603
137	0xbc91b525	-0.017786572
138	0x3cafe407	0.021471037
139	0x3d9b728d	0.07590208
140	0xbcf4bcc4	-0.029875167
141	0xbc8b9e89	-0.017043369
142	0x3d5b44be	0.053532355
143	0x3c0705ce	0.00824113
144	0xbd5c8199	-0.05383453
145	0x3cbfb051	0.023399504
146	0xbd292cc7	-0.04130247
147	0x3c086dc0	0.008326948
148	0xbc0ce584	-0.008599643
149	0x3cf33e7c	0.02969288
150	0x3c16a0eb	0.009193639
151	0x3c87a209	0.016556757
152	0xbcfffa9a	-0.031247426
153	0x3d8ca21a	0.06866856
154	0xbca833e0	-0.020532548
155	0xbda881d6	-0.08227889
156	0x3c6dd46d	0.014515978
157	0xbd681a11	-0.056665484
158	0x3d8dd986	0.06926255
159	0xbdc6b0ec	-0.09701714
160	0xbdaac580	-0.083384514
161	0x3ce38589	0.027773635
162	0x3d39f164	0.045396224
163	0xbd8d1628	-0.068889916
164	0x3da894b9	0.082314916
165	0xbd0b62ea	-0.03402988
166	0xbb041f37	-0.0020160207
167	0xbd08dcb2	-0.033413596
168	0x3bf2e8dd	0.0074130134
169	0x3d1806d7	0.037115898
170	0xbb536be6	-0.0032260357
171	0xbce569f6	-0.028004628
172	0xbd262668	-0.04056397
173	0xbdba96c8	-0.091107905
174	0xbd81201f	-0.06304955
175	0x3d8f2c63	0.06990888
176	0xbd1dd71a	-0.038535215
177	0xbca3a5d6	-0.019976538
178	0x3d979e97	0.074032955
179	0x3d96b43c	0.07358596
180	0x3ca90583	0.020632511
181	0xbd08836f	-0.03332847
182	0x3d390c9f	0.045178052
183	0xbd6e9183	-0.05824424
184	0xbd6b6988	-0.05747369
185	0x3d583e10	0.052793562
186	0xba8b1c90	-0.0010613371
187	0x3d6d2fc5	0.057906885
188	0x3dd165d6	0.10224502
189	0xbd876aa2	-0.066121355
190	0xbcdded0c	-0.027090572
191	0x3d85c49b	0.0653164
192	0x3c33c556	0.0109723415
193	0xbd92d403	-0.07169344
194	0x3d55ecf4	0.05222793
195	0xbc42bbf5	-0.011885633
196	0x3c888f22	0.016669814
197	0xbd82d7be	-0.06388806
198	0x3c95f01e	0.018302973
199	0x3bd49f89	0.0064887446
200	0xbbda7d87	-0.006667796
201	0xbb7aaeaf	-0.0038251092
202	0xbdf36549	-0.11884553
203	0x3d3ad29a	0.045611
204	0x3db04e04	0.0860863
205	0xbd394b04	-0.045237556
206	0xbd2a7820	-0.041618466
207	0xbc80504e	-0.015663292
208	0xbc507ea3	-0.012725505
209	0x3da82cbb	0.08211657
210	0xbc0d1eb3	-0.008613276
211	0x3cdc8e81	0.02692342
212	0x3c90e216	0.017685931
213	0xbd8b8332	-0.06812133
214	0x3dbf30d9	0.09335489
215	0x3c83924f	0.016060976
216	0x3d7346f4	0.059393838
217	0xbd93c3a7	-0.07215052
218	0xbd29d963	-0.04146708
219	0x3dd161e8	0.10223752
220	0x3d4bfb6c	0.04980032
221	0x3c6358d8	0.0138761625
222	0x3dbd943d	0.0925679
223	0xbb2cc491	-0.002636228
224	0x3dae47e3	0.08509805
225	0xbb9645ed	-0.0045859725
226	0x3d314f8b	0.04328875
227	0x3cee1c6c	0.029066287
228	0x3c17712d	0.009243292
229	0x3cbf4b93	0.023351466
230	0x3d639abe	0.055567496
231	0xbdccd047	-0.10000663
232	0x3d8fbbb9	0.07018227
233	0x3cdd14fe	0.026987549
234	0xbd924a82	-0.071431175
235	0x3dc9be19	0.098507114
236	0x3c914c2a	0.017736513
237	0x3d2c3185	0.042039413
238	0x3d68a5d5	0.056798775
239	0xbd55bce0	-0.05218208
240	0xbbdccb62	-0.0067381123
241	0xbdbfe7b9	-0.093703695
242	0x3d62488d	0.05524497
243	0xbb12689b	-0.0022340182
244	0x3d85dcb9	0.0653624
245	0xbcb7e0ec	-0.022446118
246	0xbd29e9e7	-0.041482832
247	0xbbc0ae0c	-0.005880123
248	0x3ca8684c	0.020557545
249	0xbd620d5b	-0.055188518
250	0x3b0f3855	0.0021853645
251	0xbd625d5e	-0.055264823
252	0xbd3e8f00	-0.046523094
253	0x3dbc800d	0.09204111
254	0xbd51c6e0	-0.051215053
255	0x3cfe5671	0.031047078

lstm.bias_ih_l0 f4 [256]
0	0x3de17f5d	0.11010621
1	0x3c4b4254	0.012405951
2	0x3df21ef8	0.11822313
3	0xbdf04aac	-0.117329925
4	0x3d34b19a	0.044114687
5	0xbdeace2f	-0.11465108
6	0x3c156f70	0.009120807
7	0xbdddf7cc	-0.10838279
8	0xbda3cdfe	-0.07998274
9	0xbce63fa6	-0.028106522
10	0xbc1a77ae	-0.009427948
11	0x3cfc03e7	0.03076358
12	0x3c83867e	0.016055342
13	0x3b568e33	0.0032738566
14	0x3e038657	0.12844215
15	0x3d85d254	0.065342575
16	0x3deb1d0e	0.11480151
17	0x3dc66565	0.09687308
18	0x3d13901d	0.03602611
19	0xbd8d963c	-0.069134206
20	0x3da36e19	0.07979984
21	0x3c1807d9	0.009279215
22	0x3d47de01	0.048795704
23	0xbdc581e9	-0.09643919
24	0x3dac4d7b	0.08413216
25	0xbd3bd5f1	-0.045858327
26	0xbc818228	-0.015809134
27	0x3912227a	0.00013936489
28	0xbdc5420f	-0.0963174
29	0xbd576c94	-0.052593783
30	0x3d220369	0.039554033
31	0xbd9922a5	-0.07477311
32	0xbd86f84e	-0.06590329
33	0x3b8ca17e	0.0042917123
34	0x3dd68192	0.10473932
35	0x3d062a8a	0.032755412
36	0x3de21aa7	0.1104024
37	0x3d94a981	0.07258893
38	0xbd7e7785	-0.0621257
39	0x3cb9e2db	0.02269118
40	0x3d7c522b	0.0616018
41	0x3dbd7e35	0.09252588
42	0x3d8f3aa8	0.0699361
43	0xbde41a4a	-0.11137827
44	0xbc696f33	-0.014247703
45	0xbdd197c5	-0.10234026
46	0xbdd04da6	-0.1017106
47	0x3d3cf1f0	0.046129167
48	0x3d0ea2db	0.03482328
49	0x3d79e60c	0.061010405
50	0xbdaf96c3	-0.085736774
51	0x3daded30	0.084925056
52	0x3c0ca3ff	0.008584022
53	0xbdec6351	-0.115423806
54	0x3caf7250	0.021416813
55	0x3d6168c3	0.05503155
56	0x3cfb65ac	0.03068813
57	0x3d475ab2	0.04867048
58	0xbd0ba9e6	-0.034097575
59	0xbd6d64f7	-0.057957616
60	0xbd8e973c	-0.069624394
61	0x3d90856a	0.07056697
62	0x3da7fb31	0.08202208
63	0xbc2bb025	-0.010479008
64	0xbbe25fa4	-0.006908374
65	0x3de216a7	0.11039477
66	0xbdafd58c	-0.08585653
67	0xbe046e95	-0.12932809
68	0x3d675c33	0.056484412
69	0xbd873e69	-0.06603701
70	0xbd0d8ffb	-0.03456114
71	0xbc84a010	-0.016189605
72	0x3df45220	0.119297266
73	0xbddf9eb1	-0.1091894
74	0xbdb07320	-0.08615708
75	0xbdfd093e	-0.123552784
76	0x3d90b96d	0.07066617
77	0x3cd4c97f	0.025974987
78	0x3d722624	0.059118405
79	0x3b9c3a2d	0.0047676773
80	0x3d980011	0.07421888
81	0x3d2a0296	0.041506372
82	0x3cb2b6db	0.021815708
83	0xbbf5e71b	-0.0075043566
84	0x3df05e41	0.117367275
85	0xbcabcd0c	-0.020971797
86	0xbd390feb	-0.045181196
87	0xbd7f569b	-0.062338453
88	0xbda35e47	-0.07976966
89	0xbddd6639	-0.10810513
90	0xbdcea1e0	-0.10089469
91	0xbd0fe037	-0.035125937
92	0x3db91f5a	0.09039183
93	0x3d8f57c8	0.06999165
94	0x3d31a9c8	0.043374807
95	0x3df41a67	0.11919098
96	0x3c811c03	0.015760427
97	0x3c1b4e4f	0.009479119
98	0xbda3db51	-0.08000816
99	0x3dec3824	0.115341455
100	0x3d9fe90f	0.07808124
101	0xbdb5da86	-0.08879571
102	0xbd9877be	-0.07444714
103	0xbd8a2abe	-0.06746434
104	0x3d5794e5	0.05263223
105	0xbdebc3ed	-0.11511979
106	0xbdbe2794	-0.09284893
107	0x3dcd0aca	0.100118235
108	0x3dcb1c3d	0.099174954
109	0x3d8fd031	0.07022131
110	0x3dbb8925	0.091570176
111	0x3d455de4	0.048185244
112	0xbc92367a	-0.017848242
113	0xbda9d788	-0.082930624
114	0xbdb205b8	-0.08692497
115	0xbde35ea6	-0.11102037
116	0xbdcca2f8	-0.09992021
117	0xbdf83e26	-0.12121229
118	0xbd4e5a45	-0.050379056
119	0xbe0283de	-0.12745616
120	0xbd74262e	-0.059606723
121	0xbdf38436	-0.118904516
122	0xbdbdeea5	-0.092740335
123	0x3d9cfb2c	0.07665095
124	0xbdbf527d	-0.09341905
125	0x3d118f30	0.035536945
126	0xbdf6bfed	-0.12048326
127	0x3d92c69f	0.0716679
128	0x3dc87c64	0.09789351
129	0xbdcd4ce6	-0.10024433
130	0xbdcf3257	-0.101170234
131	0x3c59a100	0.013283014
132	0x3d95be16	0.07311647
133	0xbe0c7844	-0.13717753
134	0xbd4d2831	-0.050087158
135	0x3de4c923	0.11171176
136	0xbdd6a9b9	-0.10481591
137	0x3db6e0e7	0.089296155
138	0x3e0828b2	0.13296774
139	0xbd8d8002	-0.06909181
140	0xbd990f06	-0.074735686
141	0x3daaff88	0.0834952
142	0x3df5f4e4	0.120096
143	0x3d7fec92	0.06248147
144	0xbdde740a	-0.108619764
145	0x3da681ec	0.081302494
146	0x3cb71d8e	0.02235296
147	0x3c34ef7c	0.011043426
148	0xbd8271f6	-0.063693926
149	0x3df28767	0.11842232
150	0x3d2f2dd9	0.042768333
151	0x3c9baa7f	0.019002197
152	0x3ca9bd04	0.020720012
153	0xbd846d5b	-0.064661704
154	0x3ddb11a3	0.10696723
155	0x3d232f24	0.03983988
156	0xbb28a5ef	-0.002573367
157	0xbdf835e2	-0.12119652
158	0xbd09ed93	-0.033673834
159	0xbd69a6e4	-0.057043925
160	0x3ded18eb	0.11577018
161	0xbd9db0ef	-0.07699763
162	0xbdf35ede	-0.11883329
163	0x3dee7c01	0.116447456
164	0xbb6bdef9	-0.0035991056
165	0x3dce5e46	0.10076575
166	0xbdae1fba	-0.08502145
167	0x3d3d53b0	0.04622239
168	0xbdedce21	-0.116115816
169	0x3abac1fd	0.0014248487
170	0x3da2792e	0.079332694
171	0x3bb1d447	0.0054269168
172	0xbd805c14	-0.062675625
173	0xbd44ca8b	-0.048044723
174	0xbdd21904	-0.102586776
175	0xbc6fec92	-0.014643805
176	0xbb596cfc	-0.0033176532
177	0xbd465213	-0.048418116
178	0x3d3177dd	0.0433272
179	0xbd3fe52b	-0.04684941
180	0x3cd8e570	0.026476592
181	0xbd8c4e54	-0.068508774
182	0x3dc82a87	0.097737364
183	0xbbc81991	-0.0061065634
184	0x3de25323	0.11051013
185	0x3dc80b49	0.097677775
186	0x3d53f688	0.051748782
187	0xbd3938ad	-0.045220066
188	0xbd0f9515	-0.035054285
189	0xbda1c3b2	-0.07898654
190	0xbd756098	-0.059906572
191	0xbde600ff	-0.11230659
192	0x3d7146a6	0.058905266
193	0xbce61ca9	-0.028089838
194	0x3debf3af	0.11521088
195	0xbe05b871	-0.1305864
196	0x3dbafb74	0.09129992
197	0xbc96002b	-0.018310627
198	0xbde88b7a	-0.11354728
199	0x3c7065a5	0.014672671
200	0xbdf1dad6	-0.11809318
201	0x3d92defa	0.07171436
202	0xbd57a605	-0.052648563
203	0xbd4d9766	-0.050193213
204	0x3d503e64	0.05084075
205	0xbd6f7727	-0.058463242
206	0xbd016138	-0.031586856
207	0xbdd27ba5	-0.102774896
208	0xbce26d6e	-0.02764007
209	0xbc9b1a14	-0.018933333
210	0xbdb3605a	-0.08758612
211	0x3c616266	0.01375637
212	0x3db70ee1	0.08938385
213	0xbdd5945d	-0.10428689
214	0x3cb23a07	0.021756185
215	0x3d3cb3b5	0.04606982
216	0x3dd51a5a	0.10405417
217	0x3bab751f	0.005232468
218	0x3de2462a	0.11048539
219	0xbd30b0ea	-0.04313747
220	0x3d1c7316	0.038195692
221	0x3e08b91b	0.13351862
222	0xbcabcf53	-0.020972883
223	0xbd4659bc	-0.04842542
224	0x3d9e4fb8	0.07730049
225	0xbdab61aa	-0.08368237
226	0xbd5881a3	-0.052858006
227	0xbdbebe43	-0.09313633
228	0x3d84415f	0.06457781
229	0x3cda1bad	0.026624525
230	0x3d8fbb18	0.07018107
231	0x3ddb464b	0.10706767
232	0x3d95ecb9	0.07320542
233	0x3dd443d4	0.103645
234	0xbda98829	-0.082779236
235	0xbc4282a2	-0.011871966
236	0xbdadb57c	-0.08481881
237	0x3dc94edc	0.09829494
238	0x3d9d7eb7	0.076901846
239	0xbd2aa536	-0.041661464
240	0xbdd2d6b5	-0.10294858
241	0x3d496327	0.049166825
242	0xbdbdae8e	-0.09261809
243	0x3ce82360	0.02833718
244	0x3dde4341	0.108526714
245	0xbd2d4f56	-0.04231199
246	0xbdb0ecda	-0.08638926
247	0xbda1e8f4	-0.079057604
248	0xbde53997	-0.11192625
249	0xbdcc124d	-0.09964428
250	0xbdb5c67e	-0.0887575
251	0x3d5c35dc	0.0537623
252	0x3d94648b	0.072457395
253	0xbcd32311	-0.025773557
254	0x3ded0d6a	0.11574824
255	0x3d807523	0.06272342

lstm.bias_hh_l0 f4 [256]
0	0x3df618c4	0.120164424
1	0x3ddceff6	0.107879564
2	0x3d8e0e71	0.06936348
3	0xbbb0aac1	-0.005391449
4	0xbd9cc223	-0.07654216
5	0x3d8e194a	0.06938417
6	0xbd87a873	-0.06623926
7	0xbd3d3027	-0.0461885
8	0x3d730e74	0.059339955
9	0xbccc54d2	-0.02494279
10	0xbdc0506a	-0.09390338
11	0xbd9ee1a2	-0.0775788
12	0xbd9049f7	-0.07045358
13	0xbe0a9bb5	-0.1353596
14	0x3df3912f	0.11892926
15	0xbc8b4436	-0.017000299
16	0x3d973b9b	0.07384416
17	0xbcb65c74	-0.022260882
18	0x3dc260d0	0.09491122
19	0x3db93299	0.09042854
20	0x3d2a39e9	0.041559134
21	0x3d451156	0.048112236
22	0xbdb0f516	-0.086404964
23	0xbd51f274	-0.051256612
24	0x3ce05d48	0.02738823
25	0xbd4182d7	-0.04724392
26	0x3c884c10	0.016637832
27	0x3d91533f	0.07095956
28	0xbe018c1f	-0.12651108
29	0xbca6b70a	-0.020350952
30	0xbdce131f	-0.10062241
31	0xbd988c09	-0.074485846
32	0xbc12eb80	-0.00896728
33	0xbd2af16a	-0.041734137
34	0xbdae0f0d	-0.084989645
35	0xbd13adb2	-0.03605432
36	0xbcd3a684	-0.025836237
37	0x3d8b9d7c	0.06817147
38	0xbd5a86b4	-0.05335112
39	0xbde8a9bf	-0.113605015
40	0x3d1df04e	0.03855925
41	0xbd1d278e	-0.0383678
42	0xbd8a70de	-0.06759809
43	0x3dea3689	0.11436183
44	0xbb4c9ff4	-0.003122327
45	0x3dbe5c5e	0.092949614
46	0xbdf5aa33	-0.119953535
47	0xbd8e988b	-0.06962689
48	0x3dc5e6a5	0.096631326
49	0x3d5045f9	0.05084798
50	0x3d6918da	0.056908466
51	0x3dc3f90f	0.095689885
52	0xbdaabf0d	-0.08337221
53	0xbdc284bc	-0.09497973
54	0xbdc248cc	-0.09486541
55	0x3ca399e0	0.019970834
56	0x3c740072	0.014892684
57	0xbc2ad29a	-0.010426188
58	0xbd585da3	-0.052823674
59	0x3b5c6807	0.003363134
60	0xbdab6611	-0.08369077
61	0x3d235844	0.0398791
62	0x3dc7f319	0.09763164
63	0x3d93724d	0.071995355
64	0xbcd505e7	-0.026003791
65	0x3dcd3f18	0.100218
66	0xbdd7e1b9	-0.105411
67	0x3c93db26	0.018048834
68	0xbbfb2d4b	-0.0076653115
69	0x3d825a4e	0.063648805
70	0xbc21d4aa	-0.009877363
71	0x3dead943	0.11467221
72	0x3da1a9e2	0.07893731
73	0x3bfb00d0	0.007660009
74	0xbd8dc7d1	-0.069228776
75	0xbd1383a4	-0.036014214
76	0x3df196be	0.1179633
77	0x3d942d9a	0.0723526
78	0x3da96c15	0.08272568
79	0x3cfba162	0.030716602
80	0xbc66c80d	-0.014085782
81	0xbd1b7470	-0.03795284
82	0xbdd83f00	-0.10558891
83	0xbc8b21f4	-0.016983964
84	0x3d66630c	0.056246802
85	0xbdd1e82e	-0.10249363
86	0xbd3b8661	-0.04578245
87	0xbdd9d64a	-0.106365755
88	0xbca0bd77	-0.019621594
89	0x3cc59b32	0.024121854
90	0xbde753a5	-0.11295251
91	0x3da8b449	0.08237512
92	0x3d3b02e4	0.045657054
93	0x3dd29ee7	0.102842145
94	0x3c87afc8	0.016563311
95	0x3d1e8534	0.03870125
96	0xbd66fb8e	-0.056392245
97	0x3db3b56d	0.087748386
98	0xbd8f8344	-0.07007459
99	0x3d9e677e	0.07734583
100	0x3c360780	0.011110187
101	0xbdb2ed7a	-0.08736701
102	0x3da2afb4	0.07943669
103	0x3ddb730c	0.10715303
104	0xbc5dff67	-0.013549662
105	0xbdf69f4b	-0.120421015
106	0xbd372379	-0.044711564
107	0xbd8993f4	-0.06717673
108	0xbdf51a6a	-0.11967929
109	0xbd2dc9b9	-0.042428706
110	0xbcbcc724	-0.023044176
111	0x3d28b0e4	0.04118432
112	0xbc761568	-0.015019752
113	0x3ca3ece7	0.020010425
114	0xbc46942e	-0.01212029
115	0xbc3d2412	-0.011544244
116	0x3d273e3b	0.040830832
117	0xbd77364e	-0.060354523
118	0xbd4fdaf5	-0.050745923
119	0x3d23e62c	0.04001443
120	0x3d0b35f4	0.033987
121	0x3d943b2e	0.0723785
122	0x3c5dd70e	0.013540043
123	0x3d17e30b	0.03708176
124	0xbc4c7bf9	-0.012480729
125	0x3dd318f6	0.10307495
126	0xbc6540ac	-0.01399247
127	0x3dbc184d	0.091843225
128	0xbe07e1ac	-0.1326968
129	0xbdf080cd	-0.11743317
130	0xbd3396f0	-0.043845117
131	0x3da5f915	0.08104149
132	0x3b48bf22	0.0030631502
133	0x3c670db4	0.014102388
134	0xbde71ee0	-0.11285186
135	0x3dc9344e	0.098244295
136	0xbdf1df15	-0.11810128
137	0xbd50636b	-0.050876062
138	0xbc182d89	-0.0092882
139	0x3dc95aad	0.09831748
140	0xbdd3e3bc	-0.10346171
141	0x3d17078d	0.036872435
142	0x3d14f091	0.036362235
143	0xbd8ae9d1	-0.06782878
144	0x3d90810b	0.07055863
145	0x3e069cd4	0.13145763
146	0x3e0ac3c7	0.13551246
147	0xbe15a377	-0.14613138
148	0xbd9cf82f	-0.07664525
149	0xbc9c79eb	-0.019101104
150	0xbdaebdc2	-0.08532287
151	0x3d0a35b8	0.033742636
152	0xbd809073	-0.062775515
153	0x3dd53f2a	0.10412438
154	0xbcaa9e80	-0.020827532
155	0xbc8ba33a	-0.017045606
156	0x3dbd3027	0.092377
157	0xbd1cb7f3	-0.038261365
158	0x3a818ab4	0.0009883256
159	0x3db0a7ee	0.0862578
160	0x3d40d2d3	0.047076058
161	0xbcb7af41	-0.022422435
162	0xbdd9035c	-0.10596344
163	0x3de7f4a3	0.113259576
164	0x3e07bddd	0.13256021
165	0xbde84458	-0.113411605
166	0xbb3cb63e	-0.0028795148
167	0x3d53113b	0.051530104
168	0xbd1176f1	-0.035513822
169	0x3dd7298c	0.10505971
170	0x3e0e2239	0.13880242
171	0x3d993e5f	0.074825995
172	0x3dce4dc5	0.10073427
173	0xbdd638e1	-0.104600675
174	0xbd04c1c4	-0.03241135
175	0xbc20ff7c	-0.009826537
176	0xbcab2812	-0.02089313
177	0x3d6bb8c0	0.05754924
178	0x3dcc4bfb	0.099754296
179	0xbb00e7f8	-0.0019669514
180	0x3d511128	0.051041752
181	0x3e07294b	0.13199346
182	0xbca86d62	-0.02055997
183	0x3d058bad	0.03260391
184	0x3db9b28d	0.09067259
185	0xbe0083aa	-0.12550226
186	0x3dfd0106	0.12353711
187	0xbd475a5d	-0.04867016
188	0x3e0215e1	0.12703659
189	0x3d961e16	0.07329957
190	0x3e0043d3	0.12525873
191	0xbde4dced	-0.11174951
192	0x3e01355f	0.12618016
193	0x3e05b052	0.13055542
194	0xbdf03ab7	-0.11729949
195	0xbda1d8ff	-0.07902717
196	0x3dce1881	0.100632675
197	0xbd3023dc	-0.04300295
198	0x3d5298a0	0.051415086
199	0xbd9cce1a	-0.07656498
200	0x3df10bdc	0.1176984
201	0x3da67163	0.081270956
202	0x3e03ddeb	0.12877624
203	0xbdfac790	-0.12245095
204	0x3dd478d9	0.10374612
205	0x3db118f6	0.08647339
206	0xbdb4bd0f	-0.088251226
207	0x3d2edf9a	0.04269371
208	0xbbeb4599	-0.0071799275
209	0x3cef0aa3	0.029179877
210	0xbd8917b5	-0.06693975
211	0x3dd442fd	0.103643395
212	0x3da4a2ea	0.08038886
213	0x3d7465ac	0.059667274
214	0x3ba27e31	0.004958891
215	0x3d88723b	0.06662413
216	0xbcf7ebcd	-0.030263806
217	0x3dc8019b	0.09765931
218	0x3de81c07	0.11333471
219	0x3c6b872f	0.014375492
220	0xbd286430	-0.04111117
221	0xbd82effa	-0.06393428
222	0x3d99c0ba	0.07507463
223	0xbdd79db2	-0.10528125
224	0x3d091722	0.033469327
225	0xbd8040d5	-0.06262366
226	0x3dcc5791	0.099776395
227	0xbcb4df6f	-0.022079198
228	0xbdb5fc4e	-0.08886014
229	0xbd67e340	-0.056613207
230	0xbdd7970d	-0.105268575
231	0xbda3a158	-0.07989758
232	0x3d8565c3	0.0651355
233	0x3d769619	0.060201738
234	0x3de273c5	0.110572375
235	0x3ce3e7b3	0.027820444
236	0x3c22460f	0.009904399
237	0xbd96bb19	-0.07359905
238	0xbb94f08a	-0.004545276
239	0xbdc11bf2	-0.09429158
240	0x3b6b1d30	0.0035875551
241	0xbdb2d0b1	-0.08731211
242	0xbd7e463d	-0.062078703
243	0xbd8fa42c	-0.07013735
244	0xbd863ada	-0.06554194
245	0x3d894287	0.06702142
246	0xbd383e66	-0.044981383
247	0xbdc8ef5c	-0.09811279
248	0x3d53ec57	0.051739063
249	0x3d81f290	0.06345093
250	0xbdba8c16	-0.091087505
251	0xbb620f9f	-0.0034494174
252	0xbc88525d	-0.016640836
253	0x3db669ac	0.08906874
254	0xbd164d78	-0.036694974
255	0x3e028fbe	0.12750146

lstm.weight_ih_l1 f4 [256, 64]
0	0xbddd087e	-0.107926354
1	0xbd4c7802	-0.049919136
2	0x3c9c57fd	0.019084925
3	0x3b45e4bd	0.0030196153
4	0xbd1eeb98	-0.0387989
5	0xbdab936d	-0.083777286
6	0xbd9ed311	-0.077551015
7	0x3d4870a6	0.048935555
8	0xbdc5d745	-0.096602
9	0xbcdb6c93	-0.02678517
10	0xbc0dfc1c	-0.008666065
11	0x3d1abb5b	0.037776332
12	0xbd1b91ed	-0.037980963
13	0xbc9465aa	-0.018114883
14	0xbd93f2ff	-0.07224082
15	0x3d9f1193	0.07767024
16	0x3cf7be74	0.030242182
17	0x3da307e9	0.07960493
18	0xbd19b2c9	-0.03752402
19	0xbda31988	-0.07963854
20	0x3c06af98	0.008220576
21	0x3c98ecde	0.018667635
22	0x3d148510	0.03625971
23	0x3d29b599	0.04143295
24	0xbd47be8d	-0.048765708
25	0xbd89603f	-0.067078106
26	0xbd6ca7cb	-0.057777207
27	0x3d69f96f	0.057122644
28	0xbd484020	-0.04888928
29	0xbd11cb9c	-0.035594568
30	0xbc587b38	-0.013212971
31	0xbd9dd5df	-0.07706808
32	0xbd9cd527	-0.07657843
33	0x3b9e20f8	0.0048257075
34	0x3c003fe7	0.0078277355
35	0x3dcd8fb7	0.10037177
36	0x3c1853bd	0.0092973085
37	0xbd94aa01	-0.07258988
38	0xbdeac1de	-0.114627585
39	0x3ba26e4b	0.0049569956
40	0xbcc782e6	-0.02435441
41	0xbd4c643c	-0.04990028
42	0x3b03361a	0.002002126
43	0x3da36464	0.07978132
44	0x3d040568	0.03223172
45	0x3d97b93c	0.074083775
46	0xbdd8f776	-0.105940744
47	0x3d254842	0.040352114
48	0x3c564b40	0.013079464
49	0xbbeafcf9	-0.00717127
50	0x3bba5e3b	0.0056875027
51	0xbcc1691d	-0.023609692
52	0x3c40a8e6	0.0117590185
53	0x3d251b5d	0.0403093
54	0x3c341d1a	0.0109932665
55	0x3bb88884	0.0056315083
56	0xbda616eb	-0.0810984
57	0xbd154224	-0.03644003
58	0x3d1d38ee	0.03838437
59	0x3d959780	0.07304287
60	0xbdb8b6a8	-0.09019214
61	0x3d6ed674	0.058309987
62	0xbd81f5f7	-0.06345742
63	0x3cb0110a	0.0214925
64	0x3cab56d9	0.020915436
65	0x3b520050	0.0032043643
66	0xbbc700e5	-0.0060731047
67	0xbbbb6115	-0.00571836
68	0x3baff4bc	0.005369751
69	0xb9459742	-0.00018843732
70	0x3b5b1c77	0.0033433714
71	0x3b3a0ceb	0.0028389047
72	0x3b9d39ed	0.004798165
73	0x3b0c42ae	0.002140205
74	0x3b4cdcb9	0.003125949
75	0xbbe30582	-0.006928147
76	0xbb0ff826	-0.0021967976
77	0xbc0bec95	-0.008540292
78	0xbc259679	-0.010106676
79	0xbc85b939	-0.016323673
80	0x3bd7281f	0.006566062
81	0xbb84a19e	-0.0040475866
82	0xbc78bd98	-0.015181921
83	0xba83c804	-0.0010054116
84	0x3c05d6fb	0.008168931
85	0xbc469ca9	-0.012122312
86	0xbba38801	-0.004990578
87	0x3b767401	0.0037605765
88	0xbc089865	-0.008337115
89	0x3a42809c	0.0007419677
90	0x3960732f	0.00021405214
91	0x3c902513	0.017595803
92	0x3c1c881e	0.009553937
93	0xbb4ff40f	-0.0031731164
94	0x3c92a28b	0.017899772
95	0x3a8ff1f4	0.0010982142
96	0xbc712ff0	-0.014720902
97	0x3bc853b5	0.0061134943
98	0x3bbb6271	0.0057185222
99	0xbce61f85	-0.028091202
100	0xbac85bd0	-0.0015286151
101	0x3c29280d	0.01032449
102	0x3c6ba5ff	0.014382838
103	0xbb12fb01	-0.0022427442
104	0xba04d146	-0.00050665846
105	0x3b44c41d	0.003002412
106	0xbc7b93fe	-0.015355108
107	0xbac40bee	-0.0014957169
108	0xba8430f5	-0.0010085391
109	0xbb1238c2	-0.0022311662
110	0xbbdaca57	-0.006676953
111	0x3a5e82ea	0.00084881356
112	0x3b995dfc	0.0046803933
113	0x3b53995f	0.0032287461
114	0xbb99d22d	-0.0046942444
115	0xbb2de3b6	-0.0026533431
116	0x3afa7b91	0.0019110312
117	0x3af14ed6	0.0018410336
118	0xbb674ba6	-0.0035292893
119	0x3a86163c	0.0010230015
120	0xbc3facdc	-0.011698928
121	0x3c2b8e36	0.010470917
122	0xbc9a5eb9	-0.018843995
123	0x3b20d17c	0.0024538925
124	0xbc4f0666	-0.012635803
125	0x3d08fe7c	0.03344582
126	0x3b086859	0.002081415
127	0xbc7f581e	-0.015584974
128	0xbdba9261	-0.09109951
129	0x3c83032d	0.015992725
130	0xbdcd6216	-0.10028474
131	0x3de3f24b	0.11130198
132	0x3d2bb4b0	0.041920364
133	0x3d5cbd4e	0.053891473
134	0xbdd0c81b	-0.10194417
135	0x3d1c0013	0.03808601
136	0x3d9e5ec3	0.07732918
137	0xbd65d208	-0.056108505
138	0x3d950066	0.072754666
139	0xbda271a8	-0.079318345
140	0x3d276c7b	0.04087494
141	0xbb5967e6	-0.00331735
142	0x3d92be9d	0.07165263
143	0x3dd51976	0.10405247
144	0x3d98c08c	0.074586004
145	0x3e06699b	0.13126223
146	0xbdb9a17e	-0.09064005
147	0xbdbe379a	-0.09287949
148	0x3d893857	0.06700199
149	0x3d95938a	0.073035315
150	0x3de19ccb	0.11016234
151	0xbdc0bea9	-0.094113655
152	0xbe00bd41	-0.12572195
153	0xbc19e4df	-0.009392946
154	0x3daaf4ed	0.08347497
155	0x3de8fce8	0.11376363
156	0x3de4a520	0.111643076
157	0x3dc032e7	0.09384709
158	0x3d6431c8	0.055711538
159	0xbd662c92	-0.05619485
160	0x3e09123e	0.13385865
161	0xbc72178a	-0.01477612
162	0xbd1323d3	-0.035922837
163	0xbdad50ec	-0.084627
164	0x3df61170	0.12015045
165	0xbd8eebcc	-0.069785684
166	0xbdbc3221	-0.09189249
167	0xbdb92fc6	-0.09042315
168	0x3cfe34ed	0.031031096
169	0x3d89dac7	0.067311816
170	0xbd156544	-0.036473528
171	0x3d4ec8e8	0.050484568
172	0x3d0eaea3	0.034834515
173	0x3da3001c	0.07959005
174	0xbdf5cad2	-0.120015755
175	0xbd937129	-0.07199318
176	0xbdca6ad3	-0.09883656
177	0x3d9a2510	0.075266
178	0x3c5fdf64	0.0136641
179	0x3db4f0c6	0.088349864
180	0x3d9fa218	0.07794589
181	0xbd744835	-0.059639174
182	0xbd58e122	-0.05294908
183	0xbc5be215	-0.013420601
184	0x3da20b1c	0.07912275
185	0xbc823e64	-0.01589889
186	0x3cb78908	0.022404209
187	0xbd329644	-0.043600336
188	0x3d829910	0.063768506
189	0x3d3516fc	0.044211373
190	0xbdabab14	-0.0838224
191	0x3d84b591	0.064799435
192	0x3dbda3fc	0.09259793
193	0xbda64024	-0.081177026
194	0x3dc36804	0.09541324
195	0x3d3b161f	0.045675393
196	0xbdef952f	-0.116983764
197	0x3cc54c5b	0.02408426
198	0x3aaebad0	0.0013330821
199	0xbd019cac	-0.031643555
200	0xbd8f28ae	-0.06990181
201	0x3cfbef2a	0.03075369
202	0xbc5c318b	-0.013439546
203	0x3d87dd5d	0.066340186
204	0xbd31dcf3	-0.043423604
205	0xbdbc4f99	-0.091948695
206	0xbd0b1911	-0.033959452
207	0xbb397e21	-0.0028303938
208	0xbd0fccda	-0.03510747
209	0xbd264b34	-0.040599063
210	0x3d9f3356	0.077734634
211	0xbae54e19	-0.0017494588
212	0x3da3f814	0.080063015
213	0xbbf66e5e	-0.007520481
214	0x3b031072	0.0019998816
215	0xbc34ea29	-0.011042156
216	0x3d8d8921	0.06910921
217	0x3da0fcee	0.078607425
218	0xbd8e810e	-0.06958209
219	0xbc1e5808	-0.009664543
220	0xbd28def4	-0.04122825
221	0x3d8365f1	0.06415928
222	0x3dd205eb	0.10255035
223	0xbd130e99	-0.035902593
224	0x3c2bdb3e	0.010489283
225	0x3daec04f	0.08532774
226	0xbd1fdeda	-0.039030887
227	0xbdd064ea	-0.10175498
228	0x3c6c9f50	0.01444228
229	0xbd381f95	-0.044951994
230	0x3d39d832	0.045372196
231	0xbd0b0f4b	-0.03395013
232	0x3d958c78	0.07302183
233	0xbbede011	-0.007259377
234	0xbc95c672	-0.018283103
235	0xbdb612c5	-0.08890299
236	0xbd736c0c	-0.059429213
237	0xbd8b6fde	-0.06808446
238	0x3d6b82c9	0.057497773
239	0xbd5162b8	-0.051119536
240	0x3db71de2	0.089412466
241	0x3cf1ea79	0.02953075
242	0xbd908d79	-0.07058234
243	0x3da5a9b8	0.08089012
244	0x3cfd9a91	0.030957492
245	0x3aca2885	0.0015423453
246	0x3cbd288f	0.023090629
247	0x3cb63031	0.022239776
248	0xbd8c0a79	-0.06837935
249	0xbd196815	-0.037452776
250	0xbd5f6f11	-0.05454928
251	0xbd60a29d	-0.05484258
252	0x3d913686	0.07090478
253	0x3de3ac57	0.111168556
254	0x3da78cd2	0.08181156
255	0xbd841ab8	-0.06450409

lstm.weight_hh_l1 f4 [256, 64]
0	0x3de54870	0.11195457
1	0x3bee22c2	0.007267327
2	0xbd8eab3d	-0.06966255
3	0x3daf9245	0.085728206
4	0xbda91868	-0.08256608
5	0xbcff1e19	-0.031142281
6	0xbdcc23f8	-0.09967798
7	0x3d89872c	0.06715235
8	0x3c27a822	0.010232957
9	0x3d9e873f	0.0774064
10	0x3c31336e	0.010815484
11	0xbd304cc6	-0.043041967
12	0x3c99523c	0.01871597
13	0xbdb5ba92	-0.08873476
14	0xbce82ac2	-0.028340701
15	0xbda178b8	-0.078843534
16	0x3cea65a6	0.028612923
17	0xbceb196a	-0.028698642
18	0xbce417c3	-0.027843362
19	0xba0f54fd	-0.00054676813
20	0xbd014a4e	-0.031565003
21	0xbdb17b4e	-0.08666097
22	0x3db6bc6b	0.089226566
23	0x3dc1771a	0.09446545
24	0xbda3a2cc	-0.079900354
25	0xbd6be22b	-0.057588737
26	0x3d638ad8	0.055552334
27	0x3dccc5d0	0.09998667
28	0xbc6c027e	-0.014404891
29	0x3d8768c9	0.06611783
30	0x3df8f6c4	0.12156442
31	0x3af7490b	0.0018866373
32	0x3d3a79bf	0.045526262
33	0x3db33363	0.087500356
34	0x3ceb1bef	0.028699843
35	0x3db664f2	0.089059725
36	0x3d94922f	0.07254445
37	0xbd7cd955	-0.0617307
38	0x3a5a3745	0.0008324276
39	0x3d39d566	0.04536953
40	0xbd27ecd5	-0.040997345
41	0xbcb21d2c	-0.021742426
42	0xbd9aa9ec	-0.07551941
43	0x3d188fc5	0.037246484
44	0xbd44706a	-0.04795877
45	0xbdc580cf	-0.09643709
46	0xbc4ee158	-0.012626968
47	0xbda6b80f	-0.08140575
48	0xbdd1446f	-0.10218131
49	0xbd7dff23	-0.062010895
50	0xbd4cc667	-0.0499939
51	0x3cc7d672	0.024394248
52	0xbd82df82	-0.06390287
53	0xbdd6a716	-0.10481088
54	0x3d310218	0.043214887
55	0x3c987612	0.018610988
56	0x3d646a66	0.055765532
57	0xbd171588	-0.03688577
58	0xbd578302	-0.052615173
59	0xbb6f3e1e	-0.003650553
60	0x3a875e9a	0.0010327876
61	0x3d341480	0.043964863
62	0xbb1007cd	-0.0021977306
63	0x3db17626	0.08665113
64	0xbb09add5	-0.0021008153
65	0xba9edc58	-0.0012120111
66	0x3d052f9a	0.0325161
67	0x3b1a9c49	0.0023591688
68	0x3be29357	0.006914537
69	0xba7f9b84	-0.00097506517
70	0xbbad968b	-0.005297487
71	0xbc11d3d2	-0.0089006
72	0x3b83075d	0.0039986805
73	0xbab482c2	-0.0013771879
74	0x3c3600b6	0.011108568
75	0xba278427	-0.00063902367
76	0x3c95f31d	0.018304402
77	0x3bb11db6	0.005405153
78	0x3bc4b456	0.006002943
79	0xbb6b12b8	-0.0035869312
80	0x3a886b67	0.0010407985
81	0x3b5e9a5e	0.0033966522
82	0x3bc19656	0.005907814
83	0x3cb6705d	0.022270376
84	0x3bc26b95	0.005933235
85	0xbc386026	-0.011253392
86	0xbbd180ab	-0.0063935122
87	0xbb4e78e5	-0.0031505164
88	0x3d10b604	0.035329834
89	0x3c5f181c	0.013616588
90	0xba9f3eaa	-0.0012149413
91	0x3c017a19	0.0079026455
92	0x3ca79d50	0.020460755
93	0xbc5b1ba7	-0.013373292
94	0xbc50adfa	-0.012736792
95	0x3cd652de	0.026162561
96	0xbcb2617a	-0.021774996
97	0x3c7c363c	0.01539379
98	0x3bec66be	0.0072143963
99	0xbc63edba	-0.013911659
100	0xbc506b0e	-0.012720836
101	0xbcd9bc10	-0.026578933
102	0xbafd7da3	-0.0019339811
103	0xbbcbffe0	-0.006225571
104	0x38d8b6ff	0.00010333768
105	0xbcbcaab7	-0.023030622
106	0x3d3909eb	0.045175474
107	0x3c8743df	0.016511856
108	0xbb7beda5	-0.0038441208
109	0xbc136a39	-0.008997493
110	0x3b1bae0b	0.002375486
111	0xbaad150a	-0.0013205123
112	0xbbe83d6c	-0.0070874
113	0x3b9356ef	0.0044964473
114	0x3c18323a	0.009289319
115	0xbb9cacdf	-0.00478135
116	0xbc6c43d7	-0.014420471
117	0x3bcddc36	0.0062823547
118	0x3c78e944	0.015192334
119	0x3b35f0b5	0.002776188
120	0x3d2a8064	0.04162635
121	0x3c42ce16	0.011889955
122	0x3ccfbc10	0.02535823
123	0xbc4ac487	-0.012375957
124	0x3b1c0c20	0.0023810938
125	0xbc4e0b47	-0.012575931
126	0x3d175671	0.03694767
127	0x3b0e54ca	0.0021718019
128	0xbd3a7dfa	-0.045530297
129	0x3b6567b6	0.0035004443
130	0xbd597311	-0.05308825
131	0x3d498a52	0.04920418
132	0x3e0f38eb	0.13986556
133	0x3d0ac239	0.03387663
134	0xbdfafaf6	-0.12254898
135	0xbd7edb3c	-0.062220797
136	0xbd16a309	-0.036776576
137	0x3d8efba4	0.069815904
138	0x3ba38913	0.0049907058
139	0x3d8805f7	0.06641763
140	0xbda01419	-0.07816333
141	0xbdbbd9e0	-0.09172416
142	0x3cee51fa	0.029091824
143	0x3dd09075	0.10183803
144	0xbd7531a0	-0.05986178
145	0xbd0da84f	-0.03458434
146	0xbd739c6d	-0.05947535
147	0xbd51e446	-0.05124309
148	0xb91d6471	-0.00015010104
149	0x3dd5bf3b	0.10436865
150	0x3df31020	0.1186831
151	0x3d46e887	0.0485616
152	0xbd0cc8fe	-0.03437137
153	0xbda13a86	-0.078724906
154	0xbcd30267	-0.025757981
155	0x3d2ead01	0.042645458
156	0xbd851a2e	-0.06499134
157	0xbba378c1	-0.00498876
158	0xbbec865e	-0.0072181663
159	0xbdcb6169	-0.09930689
160	0x3d18bde4	0.03729047
161	0x3df775bd	0.12083004
162	0x3bf04a8b	0.007333105
163	0xbd79a7e0	-0.060951114
164	0x3db842fb	0.089971505
165	0xbda7d104	-0.081941634
166	0x3d161927	0.03664508
167	0x3ca49d50	0.020094544
168	0x3d976418	0.07392138
169	0xbc4d7298	-0.012539528
170	0xbde066cb	-0.10957106
171	0xbd51f211	-0.051256243
172	0x3da14a93	0.07875552
173	0xbcd0e079	-0.025497662
174	0xbd96b73d	-0.07359169
175	0xbdf3e359	-0.119085975
176	0x3d46b908	0.048516303
177	0x3c11a049	0.008888313
178	0xbd78f3bc	-0.06077932
179	0x3dc142ff	0.094366066
180	0xbe000a9f	-0.12504052
181	0x3cdc53ff	0.026895521
182	0x3d83e7a3	0.064406656
183	0x3d33afa5	0.04386868
184	0xbdffa2c3	-0.12482216
185	0x3dc23fe1	0.0948484
186	0x3d78a04d	0.06069975
187	0x3c8896dd	0.0166735
188	0x3cdc7fad	0.02691635
189	0xbc2ecec5	-0.010669415
190	0xbdc717eb	-0.09721359
191	0xbdc33cc4	-0.095330745
192	0xbddb5e5d	-0.10711358
193	0x3b237b03	0.0024945147
194	0xbd851290	-0.06497681
195	0xbdc10d99	-0.09426422
196	0x3c78f10d	0.01519419
197	0xbd915012	-0.0709535
198	0xbdd06871	-0.101761706
199	0xbc06c31f	-0.008225231
200	0x3d902f93	0.07040324
201	0xbdc15ba6	-0.09441309
202	0x3d29c0d9	0.04144368
203	0xbd11d01b	-0.035598855
204	0x3be445d1	0.0069663306
205	0x3cc729f6	0.024312
206	0xbd85572c	-0.06510767
207	0xbd7e044c	-0.062015817
208	0x3cc5c8c7	0.02414359
209	0x3b43d33f	0.002988055
210	0x3ca449f3	0.020054793
211	0xbc7242f2	-0.014786469
212	0x3d5a7691	0.05333573
213	0xbd284f01	-0.04109097
214	0xbdb31f4d	-0.087462045
215	0x3d8769c3	0.06611969
216	0x3d95b2b3	0.07309475
217	0x3db74da6	0.08950357
218	0xbd58d281	-0.052935127
219	0x3ca160d2	0.019699488
220	0x3dd384bc	0.103280514
221	0xbc2c3978	-0.0105117485
222	0xbd2d60b9	-0.04232857
223	0x3d84578f	0.06462013
224	0xbd9580ee	-0.07299982
225	0xbd331616	-0.043722235
226	0xbc80d23c	-0.015725248
227	0x3d1e45c1	0.03864074
228	0x3b7d4d7f	0.0038650928
229	0xbd269e38	-0.040678233
230	0x3cedada9	0.029013472
231	0xbce70d72	-0.028204653
232	0xbd0e387d	-0.03472184
233	0x3c3e9031	0.011631058
234	0x3d46b5d3	0.048513245
235	0xbdaf4aba	-0.08559175
236	0x3cbb3181	0.022850754
237	0x3daa5994	0.08317867
238	0x3bebd907	0.0071975025
239	0x3d7d0497	0.061771955
240	0x3dce124d	0.10062084
241	0xbcca6dfc	-0.024710648
242	0xbc1dbb3b	-0.009627159
243	0xbd94dfda	-0.07269259
244	0x3c744752	0.014909582
245	0x3d5baac9	0.05362967
246	0x3da52c7a	0.08065124
247	0x3d7216e3	0.059103858
248	0xbde57855	-0.11204592
249	0xbc5e3912	-0.013563411
250	0x3dac11d4	0.08401838
251	0x3d6b76bb	0.057486277
252	0x3c8332d7	0.016015453
253	0xbd9de23a	-0.07709165
254	0x3ad49bc4	0.0016220738
255	0xbd926eba	-0.07150026

lstm.bias_ih_l1 f4 [256]
0	0xbd84890a	-0.064714506
1	0xbc84857c	-0.016176932
2	0x3dada4e7	0.08478718
3	0xbc70156e	-0.014653547
4	0x3e0ecac2	0.13944533
5	0xbd8692d8	-0.06570977
6	0xbb30be15	-0.0026968766
7	0x3e0b0c90	0.13579011
8	0x3dcc5331	0.09976805
9	0x3dc846d4	0.097791344
10	0x3cedc0fb	0.029022684
11	0xbdd412e3	-0.10355165
12	0x3d6f55ae	0.05843132
13	0xbdc27b79	-0.09496207
14	0x3e12898c	0.14310282
15	0xbdab048e	-0.08350478
16	0xbd3552d1	-0.044268433
17	0xbdb459c8	-0.08806187
18	0x3d89e849	0.06733758
19	0x3d5ca785	0.053870697
20	0xbd062c32	-0.03275699
21	0x3cac7166	0.021050166
22	0x3dafe788	0.08589083
23	0x3db78a53	0.0896193
24	0x3c68f297	0.014217994
25	0x3d2a6795	0.04160269
26	0xbc4a7591	-0.012357132
27	0x3d175a96	0.036951624
28	0x3dc90ec4	0.098172694
29	0xbc2711a3	-0.010197076
30	0xbc12be29	-0.0089564705
31	0x3ca010ee	0.019539323
32	0x3d999167	0.074984364
33	0xbbb1faef	-0.005431525
34	0xbda3b050	-0.07992613
35	0x3d20d730	0.03926772
36	0x3cc8c2b3	0.024506902
37	0xbc93a6e7	-0.018023921
38	0xbce8d698	-0.028422639
39	0xbdf147a7	-0.11781245
40	0x3d62cf9d	0.055373777
41	0xbd9d7136	-0.07687609
42	0xbd4bc66a	-0.04974977
43	0xbd664e1b	-0.05622683
44	0x3dabb6aa	0.0838445
45	0x3ca463ed	0.02006718
46	0xbcc3e5b4	-0.023913242
47	0xbdaefaef	-0.085439555
48	0x3ba3b7c8	0.0049962737
49	0xbdc70025	-0.097168244
50	0x3da88252	0.082279816
51	0x3d65109b	0.05592404
52	0xbb1976fa	-0.0023416863
53	0xbd7d424c	-0.061830804
54	0x3c3eb7d3	0.011640507
55	0x3da0483a	0.07826276
56	0x3ca24f71	0.019813271
57	0x3dea4da4	0.1144059
58	0xbc9a31d9	-0.018822597
59	0xbaf3cd28	-0.001860057
60	0xbdcde5f5	-0.100536264
61	0xbce3d1d4	-0.027810015
62	0xbd5eac04	-0.054363266
63	0xbbae27c1	-0.0053147976
64	0x3b603064	0.003420853
65	0xbd75bed6	-0.05999645
66	0x3e1befd4	0.15228206
67	0x3d1ca3b3	0.038242053
68	0x3e0cc114	0.13745528
69	0x3cf88acd	0.030339623
70	0x3dd7f677	0.10545056
71	0xbd17147f	-0.03688478
72	0x3d748fc6	0.059707426
73	0xbba8e9bc	-0.0051548164
74	0x3c607203	0.0136990575
75	0xbd9e7599	-0.07737274
76	0x3d0daf51	0.034591023
77	0xbda64fc1	-0.081206806
78	0xbcc648a8	-0.024204567
79	0x3d39cf30	0.045363605
80	0xbcd1cc0a	-0.025609989
81	0xbdb548c8	-0.088517725
82	0xbbd5a48e	-0.0065198606
83	0xbd9d3fb9	-0.0767817
84	0x3d9aff89	0.07568271
85	0xbd67d883	-0.056602966
86	0xbdd56129	-0.104189225
87	0xbdbd721a	-0.09250279
88	0xbdae0834	-0.08497658
89	0x3df3402f	0.118774764
90	0xbdf878a3	-0.12132385
91	0xbce506d7	-0.027957363
92	0x3dd2c139	0.102907605
93	0x3cbf6ab3	0.023366308
94	0x3c251ad9	0.010077202
95	0x3c9460f1	0.018112632
96	0xbd8217cc	-0.06352195
97	0x3e180d25	0.14848764
98	0x3d2e043f	0.04248452
99	0x3dc03834	0.0938572
100	0x3e1180f5	0.1420935
101	0x3d3a8379	0.04553554
102	0x3d14b05e	0.03630101
103	0xbd96cb68	-0.073630154
104	0x3d8361ab	0.06415113
105	0x3cb5cc16	0.022192042
106	0x3d366386	0.044528507
107	0xbbc151ee	-0.0058996594
108	0xbd3e43d6	-0.046451412
109	0xbb72b2d4	-0.003703286
110	0x3c047e13	0.008086699
111	0x3ccb8f41	0.024848582
112	0x3d07473f	0.03302693
113	0xbd9ad3b7	-0.07559913
114	0xbda6db71	-0.08147324
115	0x3d8cf59d	0.068827845
116	0x3de320e8	0.11090261
117	0xbda50ec4	-0.08059457
118	0x3e0bfc16	0.13670382
119	0x3cc3a4b3	0.023882246
120	0x3dbe5210	0.09292996
121	0xbd429f6b	-0.047515314
122	0xbd38ee81	-0.04514933
123	0xbdaf0cd8	-0.085473716
124	0x3dc3b955	0.09556834
125	0xbdabb5a6	-0.08384256
126	0xbcb7cc97	-0.022436423
127	0xbbb580e2	-0.0055390457
128	0x3d2c179e	0.04201471
129	0xbda250b5	-0.0792555
130	0x3d93901b	0.0720522
131	0x3dc1f435	0.09470407
132	0x3d06e813	0.032936167
133	0x3c98537c	0.018594496
134	0x3d7780a2	0.06042541
135	0x3c2f92f6	0.010716191
136	0xbe1a2923	-0.15054755
137	0x3d7afc6e	0.061275892
138	0xbd73b695	-0.059500296
139	0x3c4e54fe	0.012593506
140	0xbdd80615	-0.10548035
141	0x3cf03ce7	0.029325916
142	0x3e01f36b	0.12690513
143	0xbd85ffe6	-0.065429494
144	0xbd348fe3	-0.044082534
145	0x3de4602a	0.11151154
146	0x3d9d2466	0.07672958
147	0xbd40365f	-0.046926852
148	0xbd97dc68	-0.07415086
149	0x3dbef975	0.09324924
150	0x3d8d2dd3	0.06893506
151	0x3e0daadd	0.1383471
152	0xbe1e4494	-0.15455848
153	0xbd0e85fd	-0.03479575
154	0x3dae5271	0.08511818
155	0xbcb06eb3	-0.02153716
156	0xbddc815b	-0.1076686
157	0xbc9d1ccd	-0.019178772
158	0x3db93ffc	0.09045407
159	0xbdf0768a	-0.117413595
160	0x3e057844	0.13034159
161	0x3dd11d13	0.102106236
162	0x3dacaacb	0.08431014
163	0x3c30151c	0.01074722
164	0x3d719ae4	0.058985606
165	0x3da7f2b1	0.082005866
166	0x3d30c8ce	0.043160252
167	0xbdc0e16e	-0.09417997
168	0xbd375593	-0.044759344
169	0xbe2544e5	-0.16139562
170	0xbcd53179	-0.026024567
171	0xbbff966d	-0.0077999146
172	0x3d44f333	0.048083495
173	0xbe0e8947	-0.13919555
174	0xbd02e094	-0.031952456
175	0xbe20da06	-0.1570817
176	0xbddca216	-0.10773103
177	0x3d83443a	0.064094976
178	0xbdbbdf71	-0.091734774
179	0x3de41dea	0.11138518
180	0xbd974433	-0.07386055
181	0xbcae3b26	-0.021268439
182	0xbe0c4d71	-0.13701417
183	0x3d9c77e0	0.07640052
184	0xbd1ec2cd	-0.038759995
185	0xbe12a935	-0.1432236
186	0x3d0ac967	0.03388348
187	0x3c77102b	0.015079538
188	0xbd877352	-0.066137925
189	0x3c0920b6	0.008369615
190	0xbdae3de0	-0.085078955
191	0xbd607d7b	-0.054807168
192	0x3baeb90b	0.0053321174
193	0xbdaef590	-0.08542931
194	0x3d9d2a08	0.076740324
195	0x3decb65c	0.1155822
196	0xbae2c284	-0.0017300402
197	0xbd2c30d5	-0.042038757
198	0xbdb17366	-0.08664589
199	0x3d885ea5	0.06658677
200	0xbdd18ded	-0.10232148
201	0xbd0c8f3d	-0.03431629
202	0x3dbe97bd	0.093062855
203	0x3d9ef00e	0.077606305
204	0x3caeaf1a	0.02132373
205	0xbdeb8f27	-0.115019135
206	0xbd0513dd	-0.032489646
207	0x3bbfba8c	0.0058510955
208	0xbcfb6351	-0.030687006
209	0xbdc3f2b0	-0.09567773
210	0x3d47563d	0.048666228
211	0x3d04efc1	0.03245521
212	0xbd8aee0d	-0.06783686
213	0x3d533423	0.051563393
214	0x3dac43f0	0.084113955
215	0x3d2bec11	0.041973177
216	0x3d8b2061	0.06793285
217	0xbcd37a4b	-0.02581515
218	0xbdbbd64d	-0.09171734
219	0x3daca54d	0.08429966
220	0xbd7a51c8	-0.06111315
221	0x3e0fc138	0.14038551
222	0xbd96f082	-0.07370092
223	0xbdaf6f29	-0.08566124
224	0x3cfa51a5	0.03055651
225	0x3ac278e3	0.0014837052
226	0x3dd16914	0.1022512
227	0xbd6782db	-0.056521278
228	0x3cb1e573	0.021715855
229	0x3cdb525a	0.026772667
230	0x3b25995b	0.002526841
231	0xbb9763f6	-0.0046200706
232	0xbd9ce1fa	-0.07660289
233	0x3c928912	0.017887626
234	0x3e0b9f39	0.13634957
235	0x3d6438a0	0.055718064
236	0x3ca669df	0.020314155
237	0x3d94e95c	0.07271072
238	0xbc522b5a	-0.012827719
239	0x3e11dee8	0.14245188
240	0x3e178436	0.14796528
241	0xbaf644d1	-0.001878882
242	0x3de454ec	0.1114901
243	0xbd983e62	-0.074337736
244	0x3e0fabcc	0.14030379
245	0xbd5839b6	-0.052789412
246	0x3e0b04c3	0.13576035
247	0xbd4c5768	-0.049888045
248	0xbd03d6c1	-0.032187227
249	0x3cab2b5f	0.020894704
250	0x3ddbed14	0.107385784
251	0xbdb1a5b2	-0.08674182
252	0x3d637e4e	0.055540375
253	0x3d9ab2df	0.07553648
254	0xbdba6e46	-0.09103064
255	0xbd27f50e	-0.041005187
